…
I0306 10:43:21.488165 28320 net.cpp:275] The NetState phase (0) differed from the phase (1) specified by a rule in layer accuracy
I0306 10:43:21.488311 28320 net.cpp:39] Initializing net from parameters: 
name: "CaffeNet"
layers {
  top: "data"
  top: "label"
  name: "data"
  type: DATA
  data_param {
    source: "/media/lifelogging/HDD_2TB/Objects_Detection/data_split/objDetectCNN_train_lmdb"
    batch_size: 128
    backend: LMDB
  }
  include {
    phase: TRAIN
  }
  transform_param {
    mirror: true
    crop_size: 227
    mean_file: "/usr/local/caffe-dev/examples/objDetectCNN/objDetectCNN_mean.binaryproto"
  }
}
layers {
  bottom: "data"
  top: "conv1"
  name: "conv1"
  type: CONVOLUTION
  blobs_lr: 1
  blobs_lr: 2
  weight_decay: 1
  weight_decay: 0
  convolution_param {
    num_output: 96
    kernel_size: 11
    stride: 4
    weight_filler {
      type: "gaussian"
      std: 0.01
    }
    bias_filler {
      type: "constant"
      value: 0
    }
  }
}
layers {
  bottom: "conv1"
  top: "conv1"
  name: "relu1"
  type: RELU
}
layers {
  bottom: "conv1"
  top: "pool1"
  name: "pool1"
  type: POOLING
  pooling_param {
    pool: MAX
    kernel_size: 3
    stride: 2
  }
}
layers {
  bottom: "pool1"
  top: "norm1"
  name: "norm1"
  type: LRN
  lrn_param {
    local_size: 5
    alpha: 0.0001
    beta: 0.75
  }
}
layers {
  bottom: "norm1"
  top: "conv2"
  name: "conv2"
  type: CONVOLUTION
  blobs_lr: 1
  blobs_lr: 2
  weight_decay: 1
  weight_decay: 0
  convolution_param {
    num_output: 256
    pad: 2
    kernel_size: 5
    group: 2
    weight_filler {
      type: "gaussian"
      std: 0.01
    }
    bias_filler {
      type: "constant"
      value: 1
    }
  }
}
layers {
  bottom: "conv2"
  top: "conv2"
  name: "relu2"
  type: RELU
}
layers {
  bottom: "conv2"
  top: "pool2"
  name: "pool2"
  type: POOLING
  pooling_param {
    pool: MAX
    kernel_size: 3
    stride: 2
  }
}
layers {
  bottom: "pool2"
  top: "norm2"
  name: "norm2"
  type: LRN
  lrn_param {
    local_size: 5
    alpha: 0.0001
    beta: 0.75
  }
}
layers {
  bottom: "norm2"
  top: "conv3"
  name: "conv3"
  type: CONVOLUTION
  blobs_lr: 1
  blobs_lr: 2
  weight_decay: 1
  weight_decay: 0
  convolution_param {
    num_output: 384
    pad: 1
    kernel_size: 3
    weight_filler {
      type: "gaussian"
      std: 0.01
    }
    bias_filler {
      type: "constant"
      value: 0
    }
  }
}
layers {
  bottom: "conv3"
  top: "conv3"
  name: "relu3"
  type: RELU
}
layers {
  bottom: "conv3"
  top: "conv4"
  name: "conv4"
  type: CONVOLUTION
  blobs_lr: 1
  blobs_lr: 2
  weight_decay: 1
  weight_decay: 0
  convolution_param {
    num_output: 384
    pad: 1
    kernel_size: 3
    group: 2
    weight_filler {
      type: "gaussian"
      std: 0.01
    }
    bias_filler {
      type: "constant"
      value: 1
    }
  }
}
layers {
  bottom: "conv4"
  top: "conv4"
  name: "relu4"
  type: RELU
}
layers {
  bottom: "conv4"
  top: "conv5"
  name: "conv5"
  type: CONVOLUTION
  blobs_lr: 1
  blobs_lr: 2
  weight_decay: 1
  weight_decay: 0
  convolution_param {
    num_output: 256
    pad: 1
    kernel_size: 3
    group: 2
    weight_filler {
      type: "gaussian"
      std: 0.01
    }
    bias_filler {
      type: "constant"
      value: 1
    }
  }
}
layers {
  bottom: "conv5"
  top: "conv5"
  name: "relu5"
  type: RELU
}
layers {
  bottom: "conv5"
  top: "pool5"
  name: "pool5"
  type: POOLING
  pooling_param {
    pool: MAX
    kernel_size: 3
    stride: 2
  }
}
layers {
  bottom: "pool5"
  top: "fc6"
  name: "fc6"
  type: INNER_PRODUCT
  blobs_lr: 1
  blobs_lr: 2
  weight_decay: 1
  weight_decay: 0
  inner_product_param {
    num_output: 4096
    weight_filler {
      type: "gaussian"
      std: 0.005
    }
    bias_filler {
      type: "constant"
      value: 1
    }
  }
}
layers {
  bottom: "fc6"
  top: "fc6"
  name: "relu6"
  type: RELU
}
layers {
  bottom: "fc6"
  top: "fc6"
  name: "drop6"
  type: DROPOUT
  dropout_param {
    dropout_ratio: 0.5
  }
}
layers {
  bottom: "fc6"
  top: "fc7"
  name: "fc7"
  type: INNER_PRODUCT
  blobs_lr: 1
  blobs_lr: 2
  weight_decay: 1
  weight_decay: 0
  inner_product_param {
    num_output: 4096
    weight_filler {
      type: "gaussian"
      std: 0.005
    }
    bias_filler {
      type: "constant"
      value: 1
    }
  }
}
layers {
  bottom: "fc7"
  top: "fc7"
  name: "relu7"
  type: RELU
}
layers {
  bottom: "fc7"
  top: "fc7"
  name: "drop7"
  type: DROPOUT
  dropout_param {
    dropout_ratio: 0.5
  }
}
layers {
  bottom: "fc7"
  top: "fc8"
  name: "fc8"
  type: INNER_PRODUCT
  blobs_lr: 1
  blobs_lr: 2
  weight_decay: 1
  weight_decay: 0
  inner_product_param {
    num_output: 2
    weight_filler {
      type: "gaussian"
      std: 0.01
    }
    bias_filler {
      type: "constant"
      value: 0
    }
  }
}
layers {
  bottom: "fc8"
  bottom: "label"
  top: "loss"
  name: "loss"
  type: SOFTMAX_LOSS
}
state {
  phase: TRAIN
}
I0306 10:43:21.488414 28320 layer_factory.hpp:78] Creating layer data
I0306 10:43:21.488426 28320 data_transformer.cpp:24] Loading mean file from/usr/local/caffe-dev/examples/objDetectCNN/objDetectCNN_mean.binaryproto
I0306 10:43:21.489852 28320 net.cpp:67] Creating Layer data
I0306 10:43:21.489866 28320 net.cpp:356] data -> data
I0306 10:43:21.489883 28320 net.cpp:356] data -> label
I0306 10:43:21.489895 28320 net.cpp:96] Setting up data
I0306 10:43:21.489905 28320 data_layer.cpp:32] Opening dataset /media/lifelogging/HDD_2TB/Objects_Detection/data_split/objDetectCNN_train_lmdb
I0306 10:43:21.506520 28320 data_layer.cpp:71] output data size: 128,3,227,227
I0306 10:43:21.516922 28320 net.cpp:103] Top shape: 128 3 227 227 (19787136)
I0306 10:43:21.516957 28320 net.cpp:103] Top shape: 128 1 1 1 (128)
I0306 10:43:21.516963 28320 layer_factory.hpp:78] Creating layer conv1
I0306 10:43:21.516980 28320 net.cpp:67] Creating Layer conv1
I0306 10:43:21.516988 28320 net.cpp:394] conv1 <- data
I0306 10:43:21.517001 28320 net.cpp:356] conv1 -> conv1
I0306 10:43:21.517014 28320 net.cpp:96] Setting up conv1
I0306 10:43:21.532359 28320 net.cpp:103] Top shape: 128 96 55 55 (37171200)
I0306 10:43:21.532402 28320 layer_factory.hpp:78] Creating layer relu1
I0306 10:43:21.532413 28320 net.cpp:67] Creating Layer relu1
I0306 10:43:21.532420 28320 net.cpp:394] relu1 <- conv1
I0306 10:43:21.532428 28320 net.cpp:345] relu1 -> conv1 (in-place)
I0306 10:43:21.532438 28320 net.cpp:96] Setting up relu1
I0306 10:43:21.532449 28320 net.cpp:103] Top shape: 128 96 55 55 (37171200)
I0306 10:43:21.532454 28320 layer_factory.hpp:78] Creating layer pool1
I0306 10:43:21.532462 28320 net.cpp:67] Creating Layer pool1
I0306 10:43:21.532467 28320 net.cpp:394] pool1 <- conv1
I0306 10:43:21.532474 28320 net.cpp:356] pool1 -> pool1
I0306 10:43:21.532481 28320 net.cpp:96] Setting up pool1
I0306 10:43:21.532498 28320 net.cpp:103] Top shape: 128 96 27 27 (8957952)
I0306 10:43:21.532503 28320 layer_factory.hpp:78] Creating layer norm1
I0306 10:43:21.532512 28320 net.cpp:67] Creating Layer norm1
I0306 10:43:21.532517 28320 net.cpp:394] norm1 <- pool1
I0306 10:43:21.532524 28320 net.cpp:356] norm1 -> norm1
I0306 10:43:21.532531 28320 net.cpp:96] Setting up norm1
I0306 10:43:21.532548 28320 net.cpp:103] Top shape: 128 96 27 27 (8957952)
I0306 10:43:21.532552 28320 layer_factory.hpp:78] Creating layer conv2
I0306 10:43:21.532562 28320 net.cpp:67] Creating Layer conv2
I0306 10:43:21.532567 28320 net.cpp:394] conv2 <- norm1
I0306 10:43:21.532582 28320 net.cpp:356] conv2 -> conv2
I0306 10:43:21.532590 28320 net.cpp:96] Setting up conv2
I0306 10:43:21.540601 28320 net.cpp:103] Top shape: 128 256 27 27 (23887872)
I0306 10:43:21.540633 28320 layer_factory.hpp:78] Creating layer relu2
I0306 10:43:21.540643 28320 net.cpp:67] Creating Layer relu2
I0306 10:43:21.540649 28320 net.cpp:394] relu2 <- conv2
I0306 10:43:21.540657 28320 net.cpp:345] relu2 -> conv2 (in-place)
I0306 10:43:21.540666 28320 net.cpp:96] Setting up relu2
I0306 10:43:21.540673 28320 net.cpp:103] Top shape: 128 256 27 27 (23887872)
I0306 10:43:21.540678 28320 layer_factory.hpp:78] Creating layer pool2
I0306 10:43:21.540685 28320 net.cpp:67] Creating Layer pool2
I0306 10:43:21.540689 28320 net.cpp:394] pool2 <- conv2
I0306 10:43:21.540698 28320 net.cpp:356] pool2 -> pool2
I0306 10:43:21.540704 28320 net.cpp:96] Setting up pool2
I0306 10:43:21.540714 28320 net.cpp:103] Top shape: 128 256 13 13 (5537792)
I0306 10:43:21.540719 28320 layer_factory.hpp:78] Creating layer norm2
I0306 10:43:21.540729 28320 net.cpp:67] Creating Layer norm2
I0306 10:43:21.540732 28320 net.cpp:394] norm2 <- pool2
I0306 10:43:21.540740 28320 net.cpp:356] norm2 -> norm2
I0306 10:43:21.540745 28320 net.cpp:96] Setting up norm2
I0306 10:43:21.540750 28320 net.cpp:103] Top shape: 128 256 13 13 (5537792)
I0306 10:43:21.540755 28320 layer_factory.hpp:78] Creating layer conv3
I0306 10:43:21.540766 28320 net.cpp:67] Creating Layer conv3
I0306 10:43:21.540770 28320 net.cpp:394] conv3 <- norm2
I0306 10:43:21.540776 28320 net.cpp:356] conv3 -> conv3
I0306 10:43:21.540784 28320 net.cpp:96] Setting up conv3
I0306 10:43:21.563328 28320 net.cpp:103] Top shape: 128 384 13 13 (8306688)
I0306 10:43:21.563365 28320 layer_factory.hpp:78] Creating layer relu3
I0306 10:43:21.563374 28320 net.cpp:67] Creating Layer relu3
I0306 10:43:21.563380 28320 net.cpp:394] relu3 <- conv3
I0306 10:43:21.563390 28320 net.cpp:345] relu3 -> conv3 (in-place)
I0306 10:43:21.563397 28320 net.cpp:96] Setting up relu3
I0306 10:43:21.563405 28320 net.cpp:103] Top shape: 128 384 13 13 (8306688)
I0306 10:43:21.563410 28320 layer_factory.hpp:78] Creating layer conv4
I0306 10:43:21.563417 28320 net.cpp:67] Creating Layer conv4
I0306 10:43:21.563422 28320 net.cpp:394] conv4 <- conv3
I0306 10:43:21.563429 28320 net.cpp:356] conv4 -> conv4
I0306 10:43:21.563437 28320 net.cpp:96] Setting up conv4
I0306 10:43:21.580581 28320 net.cpp:103] Top shape: 128 384 13 13 (8306688)
I0306 10:43:21.580616 28320 layer_factory.hpp:78] Creating layer relu4
I0306 10:43:21.580626 28320 net.cpp:67] Creating Layer relu4
I0306 10:43:21.580631 28320 net.cpp:394] relu4 <- conv4
I0306 10:43:21.580641 28320 net.cpp:345] relu4 -> conv4 (in-place)
I0306 10:43:21.580648 28320 net.cpp:96] Setting up relu4
I0306 10:43:21.580657 28320 net.cpp:103] Top shape: 128 384 13 13 (8306688)
I0306 10:43:21.580660 28320 layer_factory.hpp:78] Creating layer conv5
I0306 10:43:21.580670 28320 net.cpp:67] Creating Layer conv5
I0306 10:43:21.580674 28320 net.cpp:394] conv5 <- conv4
I0306 10:43:21.580682 28320 net.cpp:356] conv5 -> conv5
I0306 10:43:21.580689 28320 net.cpp:96] Setting up conv5
I0306 10:43:21.592121 28320 net.cpp:103] Top shape: 128 256 13 13 (5537792)
I0306 10:43:21.592156 28320 layer_factory.hpp:78] Creating layer relu5
I0306 10:43:21.592166 28320 net.cpp:67] Creating Layer relu5
I0306 10:43:21.592172 28320 net.cpp:394] relu5 <- conv5
I0306 10:43:21.592180 28320 net.cpp:345] relu5 -> conv5 (in-place)
I0306 10:43:21.592188 28320 net.cpp:96] Setting up relu5
I0306 10:43:21.592195 28320 net.cpp:103] Top shape: 128 256 13 13 (5537792)
I0306 10:43:21.592200 28320 layer_factory.hpp:78] Creating layer pool5
I0306 10:43:21.592207 28320 net.cpp:67] Creating Layer pool5
I0306 10:43:21.592212 28320 net.cpp:394] pool5 <- conv5
I0306 10:43:21.592228 28320 net.cpp:356] pool5 -> pool5
I0306 10:43:21.592236 28320 net.cpp:96] Setting up pool5
I0306 10:43:21.592247 28320 net.cpp:103] Top shape: 128 256 6 6 (1179648)
I0306 10:43:21.592250 28320 layer_factory.hpp:78] Creating layer fc6
I0306 10:43:21.592263 28320 net.cpp:67] Creating Layer fc6
I0306 10:43:21.592275 28320 net.cpp:394] fc6 <- pool5
I0306 10:43:21.592283 28320 net.cpp:356] fc6 -> fc6
I0306 10:43:21.592290 28320 net.cpp:96] Setting up fc6
I0306 10:43:22.571668 28320 net.cpp:103] Top shape: 128 4096 1 1 (524288)
I0306 10:43:22.571699 28320 layer_factory.hpp:78] Creating layer relu6
I0306 10:43:22.571709 28320 net.cpp:67] Creating Layer relu6
I0306 10:43:22.571715 28320 net.cpp:394] relu6 <- fc6
I0306 10:43:22.571723 28320 net.cpp:345] relu6 -> fc6 (in-place)
I0306 10:43:22.571732 28320 net.cpp:96] Setting up relu6
I0306 10:43:22.571748 28320 net.cpp:103] Top shape: 128 4096 1 1 (524288)
I0306 10:43:22.571753 28320 layer_factory.hpp:78] Creating layer drop6
I0306 10:43:22.571765 28320 net.cpp:67] Creating Layer drop6
I0306 10:43:22.571770 28320 net.cpp:394] drop6 <- fc6
I0306 10:43:22.571776 28320 net.cpp:345] drop6 -> fc6 (in-place)
I0306 10:43:22.571784 28320 net.cpp:96] Setting up drop6
I0306 10:43:22.571790 28320 net.cpp:103] Top shape: 128 4096 1 1 (524288)
I0306 10:43:22.571794 28320 layer_factory.hpp:78] Creating layer fc7
I0306 10:43:22.571802 28320 net.cpp:67] Creating Layer fc7
I0306 10:43:22.571806 28320 net.cpp:394] fc7 <- fc6
I0306 10:43:22.571815 28320 net.cpp:356] fc7 -> fc7
I0306 10:43:22.571822 28320 net.cpp:96] Setting up fc7
I0306 10:43:22.995592 28320 net.cpp:103] Top shape: 128 4096 1 1 (524288)
I0306 10:43:22.995625 28320 layer_factory.hpp:78] Creating layer relu7
I0306 10:43:22.995635 28320 net.cpp:67] Creating Layer relu7
I0306 10:43:22.995640 28320 net.cpp:394] relu7 <- fc7
I0306 10:43:22.995648 28320 net.cpp:345] relu7 -> fc7 (in-place)
I0306 10:43:22.995656 28320 net.cpp:96] Setting up relu7
I0306 10:43:22.995672 28320 net.cpp:103] Top shape: 128 4096 1 1 (524288)
I0306 10:43:22.995677 28320 layer_factory.hpp:78] Creating layer drop7
I0306 10:43:22.995683 28320 net.cpp:67] Creating Layer drop7
I0306 10:43:22.995688 28320 net.cpp:394] drop7 <- fc7
I0306 10:43:22.995695 28320 net.cpp:345] drop7 -> fc7 (in-place)
I0306 10:43:22.995702 28320 net.cpp:96] Setting up drop7
I0306 10:43:22.995707 28320 net.cpp:103] Top shape: 128 4096 1 1 (524288)
I0306 10:43:22.995712 28320 layer_factory.hpp:78] Creating layer fc8
I0306 10:43:22.995719 28320 net.cpp:67] Creating Layer fc8
I0306 10:43:22.995723 28320 net.cpp:394] fc8 <- fc7
I0306 10:43:22.995730 28320 net.cpp:356] fc8 -> fc8
I0306 10:43:22.995738 28320 net.cpp:96] Setting up fc8
I0306 10:43:22.995955 28320 net.cpp:103] Top shape: 128 2 1 1 (256)
I0306 10:43:22.995964 28320 layer_factory.hpp:78] Creating layer loss
I0306 10:43:22.995975 28320 net.cpp:67] Creating Layer loss
I0306 10:43:22.995978 28320 net.cpp:394] loss <- fc8
I0306 10:43:22.995985 28320 net.cpp:394] loss <- label
I0306 10:43:22.995991 28320 net.cpp:356] loss -> loss
I0306 10:43:22.996000 28320 net.cpp:96] Setting up loss
I0306 10:43:22.996011 28320 net.cpp:103] Top shape: 1 1 1 1 (1)
I0306 10:43:22.996016 28320 net.cpp:109]     with loss weight 1
I0306 10:43:22.996040 28320 net.cpp:170] loss needs backward computation.
I0306 10:43:22.996047 28320 net.cpp:170] fc8 needs backward computation.
I0306 10:43:22.996052 28320 net.cpp:170] drop7 needs backward computation.
I0306 10:43:22.996055 28320 net.cpp:170] relu7 needs backward computation.
I0306 10:43:22.996059 28320 net.cpp:170] fc7 needs backward computation.
…
I0306 10:43:22.996795 28320 net.cpp:275] The NetState phase (1) differed from the phase (0) specified by a rule in layer data
I0306 10:43:22.996951 28320 net.cpp:39] Initializing net from parameters: 
name: "CaffeNet"
layers {
  top: "data"
  top: "label"
  name: "data"
  type: DATA
  data_param {
    source: "/media/lifelogging/HDD_2TB/Objects_Detection/data_split/objDetectCNN_val_lmdb"
    batch_size: 50
    backend: LMDB
  }
  include {
    phase: TEST
  }
  transform_param {
    mirror: false
    crop_size: 227
    mean_file: "/usr/local/caffe-dev/examples/objDetectCNN/objDetectCNN_mean.binaryproto"
  }
}
layers {
  bottom: "data"
  top: "conv1"
  name: "conv1"
  type: CONVOLUTION
  blobs_lr: 1
  blobs_lr: 2
  weight_decay: 1
  weight_decay: 0
  convolution_param {
    num_output: 96
    kernel_size: 11
    stride: 4
    weight_filler {
      type: "gaussian"
      std: 0.01
    }
    bias_filler {
      type: "constant"
      value: 0
    }
  }
}
layers {
  bottom: "conv1"
  top: "conv1"
  name: "relu1"
  type: RELU
}
layers {
  bottom: "conv1"
  top: "pool1"
  name: "pool1"
  type: POOLING
  pooling_param {
    pool: MAX
    kernel_size: 3
    stride: 2
  }
}
layers {
  bottom: "pool1"
  top: "norm1"
  name: "norm1"
  type: LRN
  lrn_param {
    local_size: 5
    alpha: 0.0001
    beta: 0.75
  }
}
layers {
  bottom: "norm1"
  top: "conv2"
  name: "conv2"
  type: CONVOLUTION
  blobs_lr: 1
  blobs_lr: 2
  weight_decay: 1
  weight_decay: 0
  convolution_param {
    num_output: 256
    pad: 2
    kernel_size: 5
    group: 2
    weight_filler {
      type: "gaussian"
      std: 0.01
    }
    bias_filler {
      type: "constant"
      value: 1
    }
  }
}
layers {
  bottom: "conv2"
  top: "conv2"
  name: "relu2"
  type: RELU
}
layers {
  bottom: "conv2"
  top: "pool2"
  name: "pool2"
  type: POOLING
  pooling_param {
    pool: MAX
    kernel_size: 3
    stride: 2
  }
}
layers {
  bottom: "pool2"
  top: "norm2"
  name: "norm2"
  type: LRN
  lrn_param {
    local_size: 5
    alpha: 0.0001
    beta: 0.75
  }
}
layers {
  bottom: "norm2"
  top: "conv3"
  name: "conv3"
  type: CONVOLUTION
  blobs_lr: 1
  blobs_lr: 2
  weight_decay: 1
  weight_decay: 0
  convolution_param {
    num_output: 384
    pad: 1
    kernel_size: 3
    weight_filler {
      type: "gaussian"
      std: 0.01
    }
    bias_filler {
      type: "constant"
      value: 0
    }
  }
}
layers {
  bottom: "conv3"
  top: "conv3"
  name: "relu3"
  type: RELU
}
layers {
  bottom: "conv3"
  top: "conv4"
  name: "conv4"
  type: CONVOLUTION
  blobs_lr: 1
  blobs_lr: 2
  weight_decay: 1
  weight_decay: 0
  convolution_param {
    num_output: 384
    pad: 1
    kernel_size: 3
    group: 2
    weight_filler {
      type: "gaussian"
      std: 0.01
    }
    bias_filler {
      type: "constant"
      value: 1
    }
  }
}
layers {
  bottom: "conv4"
  top: "conv4"
  name: "relu4"
  type: RELU
}
layers {
  bottom: "conv4"
  top: "conv5"
  name: "conv5"
  type: CONVOLUTION
  blobs_lr: 1
  blobs_lr: 2
  weight_decay: 1
  weight_decay: 0
  convolution_param {
    num_output: 256
    pad: 1
    kernel_size: 3
    group: 2
    weight_filler {
      type: "gaussian"
      std: 0.01
    }
    bias_filler {
      type: "constant"
      value: 1
    }
  }
}
layers {
  bottom: "conv5"
  top: "conv5"
  name: "relu5"
  type: RELU
}
layers {
  bottom: "conv5"
  top: "pool5"
  name: "pool5"
  type: POOLING
  pooling_param {
    pool: MAX
    kernel_size: 3
    stride: 2
  }
}
layers {
  bottom: "pool5"
  top: "fc6"
  name: "fc6"
  type: INNER_PRODUCT
  blobs_lr: 1
  blobs_lr: 2
  weight_decay: 1
  weight_decay: 0
  inner_product_param {
    num_output: 4096
    weight_filler {
      type: "gaussian"
      std: 0.005
    }
    bias_filler {
      type: "constant"
      value: 1
    }
  }
}
layers {
  bottom: "fc6"
  top: "fc6"
  name: "relu6"
  type: RELU
}
layers {
  bottom: "fc6"
  top: "fc6"
  name: "drop6"
  type: DROPOUT
  dropout_param {
    dropout_ratio: 0.5
  }
}
layers {
  bottom: "fc6"
  top: "fc7"
  name: "fc7"
  type: INNER_PRODUCT
  blobs_lr: 1
  blobs_lr: 2
  weight_decay: 1
  weight_decay: 0
  inner_product_param {
    num_output: 4096
    weight_filler {
      type: "gaussian"
      std: 0.005
    }
    bias_filler {
      type: "constant"
      value: 1
    }
  }
}
layers {
  bottom: "fc7"
  top: "fc7"
  name: "relu7"
  type: RELU
}
layers {
  bottom: "fc7"
  top: "fc7"
  name: "drop7"
  type: DROPOUT
  dropout_param {
    dropout_ratio: 0.5
  }
}
layers {
  bottom: "fc7"
  top: "fc8"
  name: "fc8"
  type: INNER_PRODUCT
  blobs_lr: 1
  blobs_lr: 2
  weight_decay: 1
  weight_decay: 0
  inner_product_param {
    num_output: 2
    weight_filler {
      type: "gaussian"
      std: 0.01
    }
    bias_filler {
      type: "constant"
      value: 0
    }
  }
}
layers {
  bottom: "fc8"
  bottom: "label"
  top: "accuracy"
  name: "accuracy"
  type: ACCURACY
  include {
    phase: TEST
  }
}
layers {
  bottom: "fc8"
  bottom: "label"
  top: "loss"
  name: "loss"
  type: SOFTMAX_LOSS
}
state {
  phase: TEST
}
I0306 10:43:22.997056 28320 layer_factory.hpp:78] Creating layer data
I0306 10:43:22.997066 28320 data_transformer.cpp:24] Loading mean file from/usr/local/caffe-dev/examples/objDetectCNN/objDetectCNN_mean.binaryproto
I0306 10:43:22.998324 28320 net.cpp:67] Creating Layer data
I0306 10:43:22.998335 28320 net.cpp:356] data -> data
I0306 10:43:22.998344 28320 net.cpp:356] data -> label
I0306 10:43:22.998353 28320 net.cpp:96] Setting up data
I0306 10:43:22.998358 28320 data_layer.cpp:32] Opening dataset /media/lifelogging/HDD_2TB/Objects_Detection/data_split/objDetectCNN_val_lmdb
I0306 10:43:23.009007 28320 data_layer.cpp:71] output data size: 50,3,227,227
I0306 10:43:23.016135 28320 net.cpp:103] Top shape: 50 3 227 227 (7729350)
I0306 10:43:23.016165 28320 net.cpp:103] Top shape: 50 1 1 1 (50)
I0306 10:43:23.016173 28320 layer_factory.hpp:78] Creating layer label_data_1_split
I0306 10:43:23.016192 28320 net.cpp:67] Creating Layer label_data_1_split
I0306 10:43:23.016198 28320 net.cpp:394] label_data_1_split <- label
I0306 10:43:23.016208 28320 net.cpp:356] label_data_1_split -> label_data_1_split_0
I0306 10:43:23.016221 28320 net.cpp:356] label_data_1_split -> label_data_1_split_1
I0306 10:43:23.016227 28320 net.cpp:96] Setting up label_data_1_split
I0306 10:43:23.016235 28320 net.cpp:103] Top shape: 50 1 1 1 (50)
I0306 10:43:23.016239 28320 net.cpp:103] Top shape: 50 1 1 1 (50)
I0306 10:43:23.016244 28320 layer_factory.hpp:78] Creating layer conv1
I0306 10:43:23.016253 28320 net.cpp:67] Creating Layer conv1
I0306 10:43:23.016258 28320 net.cpp:394] conv1 <- data
I0306 10:43:23.016264 28320 net.cpp:356] conv1 -> conv1
I0306 10:43:23.016273 28320 net.cpp:96] Setting up conv1
I0306 10:43:23.017256 28320 net.cpp:103] Top shape: 50 96 55 55 (14520000)
I0306 10:43:23.017282 28320 layer_factory.hpp:78] Creating layer relu1
I0306 10:43:23.017289 28320 net.cpp:67] Creating Layer relu1
I0306 10:43:23.017294 28320 net.cpp:394] relu1 <- conv1
I0306 10:43:23.017300 28320 net.cpp:345] relu1 -> conv1 (in-place)
I0306 10:43:23.017315 28320 net.cpp:96] Setting up relu1
I0306 10:43:23.017323 28320 net.cpp:103] Top shape: 50 96 55 55 (14520000)
I0306 10:43:23.017328 28320 layer_factory.hpp:78] Creating layer pool1
I0306 10:43:23.017335 28320 net.cpp:67] Creating Layer pool1
I0306 10:43:23.017339 28320 net.cpp:394] pool1 <- conv1
I0306 10:43:23.017346 28320 net.cpp:356] pool1 -> pool1
I0306 10:43:23.017352 28320 net.cpp:96] Setting up pool1
I0306 10:43:23.017361 28320 net.cpp:103] Top shape: 50 96 27 27 (3499200)
I0306 10:43:23.017366 28320 layer_factory.hpp:78] Creating layer norm1
I0306 10:43:23.017374 28320 net.cpp:67] Creating Layer norm1
I0306 10:43:23.017377 28320 net.cpp:394] norm1 <- pool1
I0306 10:43:23.017384 28320 net.cpp:356] norm1 -> norm1
I0306 10:43:23.017390 28320 net.cpp:96] Setting up norm1
I0306 10:43:23.017395 28320 net.cpp:103] Top shape: 50 96 27 27 (3499200)
I0306 10:43:23.017400 28320 layer_factory.hpp:78] Creating layer conv2
I0306 10:43:23.017407 28320 net.cpp:67] Creating Layer conv2
I0306 10:43:23.017412 28320 net.cpp:394] conv2 <- norm1
I0306 10:43:23.017418 28320 net.cpp:356] conv2 -> conv2
I0306 10:43:23.017426 28320 net.cpp:96] Setting up conv2
I0306 10:43:23.025441 28320 net.cpp:103] Top shape: 50 256 27 27 (9331200)
I0306 10:43:23.025476 28320 layer_factory.hpp:78] Creating layer relu2
I0306 10:43:23.025486 28320 net.cpp:67] Creating Layer relu2
I0306 10:43:23.025492 28320 net.cpp:394] relu2 <- conv2
I0306 10:43:23.025501 28320 net.cpp:345] relu2 -> conv2 (in-place)
I0306 10:43:23.025508 28320 net.cpp:96] Setting up relu2
I0306 10:43:23.025516 28320 net.cpp:103] Top shape: 50 256 27 27 (9331200)
I0306 10:43:23.025521 28320 layer_factory.hpp:78] Creating layer pool2
I0306 10:43:23.025535 28320 net.cpp:67] Creating Layer pool2
I0306 10:43:23.025540 28320 net.cpp:394] pool2 <- conv2
I0306 10:43:23.025547 28320 net.cpp:356] pool2 -> pool2
I0306 10:43:23.025555 28320 net.cpp:96] Setting up pool2
I0306 10:43:23.025564 28320 net.cpp:103] Top shape: 50 256 13 13 (2163200)
I0306 10:43:23.025569 28320 layer_factory.hpp:78] Creating layer norm2
I0306 10:43:23.025578 28320 net.cpp:67] Creating Layer norm2
I0306 10:43:23.025583 28320 net.cpp:394] norm2 <- pool2
I0306 10:43:23.025588 28320 net.cpp:356] norm2 -> norm2
I0306 10:43:23.025595 28320 net.cpp:96] Setting up norm2
I0306 10:43:23.025600 28320 net.cpp:103] Top shape: 50 256 13 13 (2163200)
I0306 10:43:23.025604 28320 layer_factory.hpp:78] Creating layer conv3
I0306 10:43:23.025614 28320 net.cpp:67] Creating Layer conv3
I0306 10:43:23.025619 28320 net.cpp:394] conv3 <- norm2
I0306 10:43:23.025625 28320 net.cpp:356] conv3 -> conv3
I0306 10:43:23.025634 28320 net.cpp:96] Setting up conv3
I0306 10:43:23.047986 28320 net.cpp:103] Top shape: 50 384 13 13 (3244800)
I0306 10:43:23.048022 28320 layer_factory.hpp:78] Creating layer relu3
I0306 10:43:23.048033 28320 net.cpp:67] Creating Layer relu3
I0306 10:43:23.048039 28320 net.cpp:394] relu3 <- conv3
I0306 10:43:23.048048 28320 net.cpp:345] relu3 -> conv3 (in-place)
I0306 10:43:23.048058 28320 net.cpp:96] Setting up relu3
I0306 10:43:23.048064 28320 net.cpp:103] Top shape: 50 384 13 13 (3244800)
I0306 10:43:23.048069 28320 layer_factory.hpp:78] Creating layer conv4
I0306 10:43:23.048079 28320 net.cpp:67] Creating Layer conv4
I0306 10:43:23.048084 28320 net.cpp:394] conv4 <- conv3
I0306 10:43:23.048089 28320 net.cpp:356] conv4 -> conv4
I0306 10:43:23.048097 28320 net.cpp:96] Setting up conv4
I0306 10:43:23.064921 28320 net.cpp:103] Top shape: 50 384 13 13 (3244800)
I0306 10:43:23.064952 28320 layer_factory.hpp:78] Creating layer relu4
I0306 10:43:23.064961 28320 net.cpp:67] Creating Layer relu4
I0306 10:43:23.064967 28320 net.cpp:394] relu4 <- conv4
I0306 10:43:23.064977 28320 net.cpp:345] relu4 -> conv4 (in-place)
I0306 10:43:23.064993 28320 net.cpp:96] Setting up relu4
I0306 10:43:23.065001 28320 net.cpp:103] Top shape: 50 384 13 13 (3244800)
I0306 10:43:23.065006 28320 layer_factory.hpp:78] Creating layer conv5
I0306 10:43:23.065014 28320 net.cpp:67] Creating Layer conv5
I0306 10:43:23.065026 28320 net.cpp:394] conv5 <- conv4
I0306 10:43:23.065033 28320 net.cpp:356] conv5 -> conv5
I0306 10:43:23.065042 28320 net.cpp:96] Setting up conv5
I0306 10:43:23.076495 28320 net.cpp:103] Top shape: 50 256 13 13 (2163200)
I0306 10:43:23.076529 28320 layer_factory.hpp:78] Creating layer relu5
I0306 10:43:23.076539 28320 net.cpp:67] Creating Layer relu5
I0306 10:43:23.076545 28320 net.cpp:394] relu5 <- conv5
I0306 10:43:23.076552 28320 net.cpp:345] relu5 -> conv5 (in-place)
I0306 10:43:23.076561 28320 net.cpp:96] Setting up relu5
I0306 10:43:23.076568 28320 net.cpp:103] Top shape: 50 256 13 13 (2163200)
I0306 10:43:23.076572 28320 layer_factory.hpp:78] Creating layer pool5
I0306 10:43:23.076583 28320 net.cpp:67] Creating Layer pool5
I0306 10:43:23.076588 28320 net.cpp:394] pool5 <- conv5
I0306 10:43:23.076596 28320 net.cpp:356] pool5 -> pool5
I0306 10:43:23.076602 28320 net.cpp:96] Setting up pool5
I0306 10:43:23.076611 28320 net.cpp:103] Top shape: 50 256 6 6 (460800)
I0306 10:43:23.076616 28320 layer_factory.hpp:78] Creating layer fc6
I0306 10:43:23.076627 28320 net.cpp:67] Creating Layer fc6
I0306 10:43:23.076632 28320 net.cpp:394] fc6 <- pool5
I0306 10:43:23.076637 28320 net.cpp:356] fc6 -> fc6
I0306 10:43:23.076645 28320 net.cpp:96] Setting up fc6
I0306 10:43:24.112120 28320 net.cpp:103] Top shape: 50 4096 1 1 (204800)
I0306 10:43:24.112153 28320 layer_factory.hpp:78] Creating layer relu6
I0306 10:43:24.112162 28320 net.cpp:67] Creating Layer relu6
I0306 10:43:24.112167 28320 net.cpp:394] relu6 <- fc6
I0306 10:43:24.112175 28320 net.cpp:345] relu6 -> fc6 (in-place)
I0306 10:43:24.112186 28320 net.cpp:96] Setting up relu6
I0306 10:43:24.112201 28320 net.cpp:103] Top shape: 50 4096 1 1 (204800)
I0306 10:43:24.112206 28320 layer_factory.hpp:78] Creating layer drop6
I0306 10:43:24.112213 28320 net.cpp:67] Creating Layer drop6
I0306 10:43:24.112217 28320 net.cpp:394] drop6 <- fc6
I0306 10:43:24.112223 28320 net.cpp:345] drop6 -> fc6 (in-place)
I0306 10:43:24.112229 28320 net.cpp:96] Setting up drop6
I0306 10:43:24.112234 28320 net.cpp:103] Top shape: 50 4096 1 1 (204800)
I0306 10:43:24.112239 28320 layer_factory.hpp:78] Creating layer fc7
I0306 10:43:24.112246 28320 net.cpp:67] Creating Layer fc7
I0306 10:43:24.112251 28320 net.cpp:394] fc7 <- fc6
I0306 10:43:24.112259 28320 net.cpp:356] fc7 -> fc7
I0306 10:43:24.112267 28320 net.cpp:96] Setting up fc7
I0306 10:43:24.565374 28320 net.cpp:103] Top shape: 50 4096 1 1 (204800)
I0306 10:43:24.565407 28320 layer_factory.hpp:78] Creating layer relu7
I0306 10:43:24.565418 28320 net.cpp:67] Creating Layer relu7
I0306 10:43:24.565424 28320 net.cpp:394] relu7 <- fc7
I0306 10:43:24.565433 28320 net.cpp:345] relu7 -> fc7 (in-place)
I0306 10:43:24.565440 28320 net.cpp:96] Setting up relu7
I0306 10:43:24.565457 28320 net.cpp:103] Top shape: 50 4096 1 1 (204800)
I0306 10:43:24.565462 28320 layer_factory.hpp:78] Creating layer drop7
I0306 10:43:24.565469 28320 net.cpp:67] Creating Layer drop7
I0306 10:43:24.565474 28320 net.cpp:394] drop7 <- fc7
I0306 10:43:24.565479 28320 net.cpp:345] drop7 -> fc7 (in-place)
I0306 10:43:24.565485 28320 net.cpp:96] Setting up drop7
I0306 10:43:24.565490 28320 net.cpp:103] Top shape: 50 4096 1 1 (204800)
I0306 10:43:24.565495 28320 layer_factory.hpp:78] Creating layer fc8
I0306 10:43:24.565503 28320 net.cpp:67] Creating Layer fc8
I0306 10:43:24.565508 28320 net.cpp:394] fc8 <- fc7
I0306 10:43:24.565515 28320 net.cpp:356] fc8 -> fc8
I0306 10:43:24.565526 28320 net.cpp:96] Setting up fc8
I0306 10:43:24.565757 28320 net.cpp:103] Top shape: 50 2 1 1 (100)
I0306 10:43:24.565765 28320 layer_factory.hpp:78] Creating layer fc8_fc8_0_split
I0306 10:43:24.565771 28320 net.cpp:67] Creating Layer fc8_fc8_0_split
I0306 10:43:24.565775 28320 net.cpp:394] fc8_fc8_0_split <- fc8
I0306 10:43:24.565793 28320 net.cpp:356] fc8_fc8_0_split -> fc8_fc8_0_split_0
I0306 10:43:24.565800 28320 net.cpp:356] fc8_fc8_0_split -> fc8_fc8_0_split_1
I0306 10:43:24.565807 28320 net.cpp:96] Setting up fc8_fc8_0_split
I0306 10:43:24.565814 28320 net.cpp:103] Top shape: 50 2 1 1 (100)
I0306 10:43:24.565824 28320 net.cpp:103] Top shape: 50 2 1 1 (100)
I0306 10:43:24.565829 28320 layer_factory.hpp:78] Creating layer accuracy
I0306 10:43:24.565839 28320 net.cpp:67] Creating Layer accuracy
I0306 10:43:24.565843 28320 net.cpp:394] accuracy <- fc8_fc8_0_split_0
I0306 10:43:24.565850 28320 net.cpp:394] accuracy <- label_data_1_split_0
I0306 10:43:24.565856 28320 net.cpp:356] accuracy -> accuracy
I0306 10:43:24.565865 28320 net.cpp:96] Setting up accuracy
I0306 10:43:24.565870 28320 net.cpp:103] Top shape: 1 1 1 1 (1)
I0306 10:43:24.565873 28320 layer_factory.hpp:78] Creating layer loss
I0306 10:43:24.565881 28320 net.cpp:67] Creating Layer loss
I0306 10:43:24.565884 28320 net.cpp:394] loss <- fc8_fc8_0_split_1
I0306 10:43:24.565891 28320 net.cpp:394] loss <- label_data_1_split_1
I0306 10:43:24.565897 28320 net.cpp:356] loss -> loss
I0306 10:43:24.565904 28320 net.cpp:96] Setting up loss
I0306 10:43:24.565912 28320 net.cpp:103] Top shape: 1 1 1 1 (1)
I0306 10:43:24.565917 28320 net.cpp:109]     with loss weight 1
I0306 10:43:24.565928 28320 net.cpp:170] loss needs backward computation.
I0306 10:43:24.565932 28320 net.cpp:172] accuracy does not need backward computation.
I0306 10:43:24.565937 28320 net.cpp:170] fc8_fc8_0_split needs backward computation.
I0306 10:43:24.565942 28320 net.cpp:170] fc8 needs backward computation.
I0306 10:43:24.565945 28320 net.cpp:170] drop7 needs backward computation.
…
