…
I0316 16:06:00.790904 17496 net.cpp:275] The NetState phase (0) differed from the phase (1) specified by a rule in layer accuracy
I0316 16:06:00.791095 17496 net.cpp:39] Initializing net from parameters: 
name: "CaffeNet"
layers {
  top: "data"
  top: "label"
  name: "data"
  type: DATA
  data_param {
    source: "/media/lifelogging/HDD_2TB/Object-Detection-CNN_Data/objDetectCNN_train_lmdb"
    batch_size: 128
    backend: LMDB
  }
  include {
    phase: TRAIN
  }
  transform_param {
    mirror: true
    crop_size: 227
    mean_file: "/usr/local/caffe-dev/examples/objDetectCNN/imagenet_mean.binaryproto"
  }
}
layers {
  bottom: "data"
  top: "conv1"
  name: "conv1"
  type: CONVOLUTION
  blobs_lr: 1
  blobs_lr: 2
  weight_decay: 1
  weight_decay: 0
  convolution_param {
    num_output: 96
    kernel_size: 11
    stride: 4
    weight_filler {
      type: "gaussian"
      std: 0.01
    }
    bias_filler {
      type: "constant"
      value: 0
    }
  }
}
layers {
  bottom: "conv1"
  top: "conv1"
  name: "relu1"
  type: RELU
}
layers {
  bottom: "conv1"
  top: "pool1"
  name: "pool1"
  type: POOLING
  pooling_param {
    pool: MAX
    kernel_size: 3
    stride: 2
  }
}
layers {
  bottom: "pool1"
  top: "norm1"
  name: "norm1"
  type: LRN
  lrn_param {
    local_size: 5
    alpha: 0.0001
    beta: 0.75
  }
}
layers {
  bottom: "norm1"
  top: "conv2"
  name: "conv2"
  type: CONVOLUTION
  blobs_lr: 1
  blobs_lr: 2
  weight_decay: 1
  weight_decay: 0
  convolution_param {
    num_output: 256
    pad: 2
    kernel_size: 5
    group: 2
    weight_filler {
      type: "gaussian"
      std: 0.01
    }
    bias_filler {
      type: "constant"
      value: 1
    }
  }
}
layers {
  bottom: "conv2"
  top: "conv2"
  name: "relu2"
  type: RELU
}
layers {
  bottom: "conv2"
  top: "pool2"
  name: "pool2"
  type: POOLING
  pooling_param {
    pool: MAX
    kernel_size: 3
    stride: 2
  }
}
layers {
  bottom: "pool2"
  top: "norm2"
  name: "norm2"
  type: LRN
  lrn_param {
    local_size: 5
    alpha: 0.0001
    beta: 0.75
  }
}
layers {
  bottom: "norm2"
  top: "conv3"
  name: "conv3"
  type: CONVOLUTION
  blobs_lr: 1
  blobs_lr: 2
  weight_decay: 1
  weight_decay: 0
  convolution_param {
    num_output: 384
    pad: 1
    kernel_size: 3
    weight_filler {
      type: "gaussian"
      std: 0.01
    }
    bias_filler {
      type: "constant"
      value: 0
    }
  }
}
layers {
  bottom: "conv3"
  top: "conv3"
  name: "relu3"
  type: RELU
}
layers {
  bottom: "conv3"
  top: "conv4"
  name: "conv4"
  type: CONVOLUTION
  blobs_lr: 1
  blobs_lr: 2
  weight_decay: 1
  weight_decay: 0
  convolution_param {
    num_output: 384
    pad: 1
    kernel_size: 3
    group: 2
    weight_filler {
      type: "gaussian"
      std: 0.01
    }
    bias_filler {
      type: "constant"
      value: 1
    }
  }
}
layers {
  bottom: "conv4"
  top: "conv4"
  name: "relu4"
  type: RELU
}
layers {
  bottom: "conv4"
  top: "conv5"
  name: "conv5"
  type: CONVOLUTION
  blobs_lr: 1
  blobs_lr: 2
  weight_decay: 1
  weight_decay: 0
  convolution_param {
    num_output: 256
    pad: 1
    kernel_size: 3
    group: 2
    weight_filler {
      type: "gaussian"
      std: 0.01
    }
    bias_filler {
      type: "constant"
      value: 1
    }
  }
}
layers {
  bottom: "conv5"
  top: "conv5"
  name: "relu5"
  type: RELU
}
layers {
  bottom: "conv5"
  top: "pool5"
  name: "pool5"
  type: POOLING
  pooling_param {
    pool: MAX
    kernel_size: 3
    stride: 2
  }
}
layers {
  bottom: "pool5"
  top: "fc6"
  name: "fc6"
  type: INNER_PRODUCT
  blobs_lr: 5
  blobs_lr: 10
  weight_decay: 1
  weight_decay: 0
  inner_product_param {
    num_output: 4096
    weight_filler {
      type: "gaussian"
      std: 0.005
    }
    bias_filler {
      type: "constant"
      value: 1
    }
  }
}
layers {
  bottom: "fc6"
  top: "fc6"
  name: "relu6"
  type: RELU
}
layers {
  bottom: "fc6"
  top: "fc6"
  name: "drop6"
  type: DROPOUT
  dropout_param {
    dropout_ratio: 0.5
  }
}
layers {
  bottom: "fc6"
  top: "fc7"
  name: "fc7"
  type: INNER_PRODUCT
  blobs_lr: 8
  blobs_lr: 15
  weight_decay: 1
  weight_decay: 0
  inner_product_param {
    num_output: 4096
    weight_filler {
      type: "gaussian"
      std: 0.005
    }
    bias_filler {
      type: "constant"
      value: 1
    }
  }
}
layers {
  bottom: "fc7"
  top: "fc7"
  name: "relu7"
  type: RELU
}
layers {
  bottom: "fc7"
  top: "fc7"
  name: "drop7"
  type: DROPOUT
  dropout_param {
    dropout_ratio: 0.5
  }
}
layers {
  bottom: "fc7"
  top: "fc8_objDetect"
  name: "fc8_objDetect"
  type: INNER_PRODUCT
  blobs_lr: 10
  blobs_lr: 20
  weight_decay: 1
  weight_decay: 0
  inner_product_param {
    num_output: 2
    weight_filler {
      type: "gaussian"
      std: 0.01
    }
    bias_filler {
      type: "constant"
      value: 0
    }
  }
}
layers {
  bottom: "fc8_objDetect"
  bottom: "label"
  top: "loss"
  name: "loss"
  type: SOFTMAX_LOSS
}
state {
  phase: TRAIN
}
I0316 16:06:00.791237 17496 layer_factory.hpp:78] Creating layer data
I0316 16:06:00.791251 17496 data_transformer.cpp:24] Loading mean file from/usr/local/caffe-dev/examples/objDetectCNN/imagenet_mean.binaryproto
I0316 16:06:00.794667 17496 net.cpp:67] Creating Layer data
I0316 16:06:00.794723 17496 net.cpp:356] data -> data
I0316 16:06:00.794751 17496 net.cpp:356] data -> label
I0316 16:06:00.794767 17496 net.cpp:96] Setting up data
I0316 16:06:00.794780 17496 data_layer.cpp:32] Opening dataset /media/lifelogging/HDD_2TB/Object-Detection-CNN_Data/objDetectCNN_train_lmdb
I0316 16:06:00.818321 17496 data_layer.cpp:71] output data size: 128,3,227,227
I0316 16:06:00.900302 17496 net.cpp:103] Top shape: 128 3 227 227 (19787136)
I0316 16:06:00.900399 17496 net.cpp:103] Top shape: 128 1 1 1 (128)
I0316 16:06:00.900413 17496 layer_factory.hpp:78] Creating layer conv1
I0316 16:06:00.900442 17496 net.cpp:67] Creating Layer conv1
I0316 16:06:00.900452 17496 net.cpp:394] conv1 <- data
I0316 16:06:00.900476 17496 net.cpp:356] conv1 -> conv1
I0316 16:06:00.900496 17496 net.cpp:96] Setting up conv1
I0316 16:06:00.927840 17496 net.cpp:103] Top shape: 128 96 55 55 (37171200)
I0316 16:06:00.927970 17496 layer_factory.hpp:78] Creating layer relu1
I0316 16:06:00.928004 17496 net.cpp:67] Creating Layer relu1
I0316 16:06:00.928019 17496 net.cpp:394] relu1 <- conv1
I0316 16:06:00.928040 17496 net.cpp:345] relu1 -> conv1 (in-place)
I0316 16:06:00.928056 17496 net.cpp:96] Setting up relu1
I0316 16:06:00.928072 17496 net.cpp:103] Top shape: 128 96 55 55 (37171200)
I0316 16:06:00.928078 17496 layer_factory.hpp:78] Creating layer pool1
I0316 16:06:00.928091 17496 net.cpp:67] Creating Layer pool1
I0316 16:06:00.928095 17496 net.cpp:394] pool1 <- conv1
I0316 16:06:00.928103 17496 net.cpp:356] pool1 -> pool1
I0316 16:06:00.928113 17496 net.cpp:96] Setting up pool1
I0316 16:06:00.928141 17496 net.cpp:103] Top shape: 128 96 27 27 (8957952)
I0316 16:06:00.928150 17496 layer_factory.hpp:78] Creating layer norm1
I0316 16:06:00.928174 17496 net.cpp:67] Creating Layer norm1
I0316 16:06:00.928182 17496 net.cpp:394] norm1 <- pool1
I0316 16:06:00.928194 17496 net.cpp:356] norm1 -> norm1
I0316 16:06:00.928226 17496 net.cpp:96] Setting up norm1
I0316 16:06:00.928242 17496 net.cpp:103] Top shape: 128 96 27 27 (8957952)
I0316 16:06:00.928251 17496 layer_factory.hpp:78] Creating layer conv2
I0316 16:06:00.928270 17496 net.cpp:67] Creating Layer conv2
I0316 16:06:00.928299 17496 net.cpp:394] conv2 <- norm1
I0316 16:06:00.928315 17496 net.cpp:356] conv2 -> conv2
I0316 16:06:00.928329 17496 net.cpp:96] Setting up conv2
I0316 16:06:00.937831 17496 net.cpp:103] Top shape: 128 256 27 27 (23887872)
I0316 16:06:00.937916 17496 layer_factory.hpp:78] Creating layer relu2
I0316 16:06:00.937930 17496 net.cpp:67] Creating Layer relu2
I0316 16:06:00.937939 17496 net.cpp:394] relu2 <- conv2
I0316 16:06:00.937949 17496 net.cpp:345] relu2 -> conv2 (in-place)
I0316 16:06:00.937960 17496 net.cpp:96] Setting up relu2
I0316 16:06:00.937969 17496 net.cpp:103] Top shape: 128 256 27 27 (23887872)
I0316 16:06:00.937974 17496 layer_factory.hpp:78] Creating layer pool2
I0316 16:06:00.937983 17496 net.cpp:67] Creating Layer pool2
I0316 16:06:00.937988 17496 net.cpp:394] pool2 <- conv2
I0316 16:06:00.937994 17496 net.cpp:356] pool2 -> pool2
I0316 16:06:00.938002 17496 net.cpp:96] Setting up pool2
I0316 16:06:00.938014 17496 net.cpp:103] Top shape: 128 256 13 13 (5537792)
I0316 16:06:00.938019 17496 layer_factory.hpp:78] Creating layer norm2
I0316 16:06:00.938030 17496 net.cpp:67] Creating Layer norm2
I0316 16:06:00.938035 17496 net.cpp:394] norm2 <- pool2
I0316 16:06:00.938042 17496 net.cpp:356] norm2 -> norm2
I0316 16:06:00.938050 17496 net.cpp:96] Setting up norm2
I0316 16:06:00.938055 17496 net.cpp:103] Top shape: 128 256 13 13 (5537792)
I0316 16:06:00.938060 17496 layer_factory.hpp:78] Creating layer conv3
I0316 16:06:00.938069 17496 net.cpp:67] Creating Layer conv3
I0316 16:06:00.938074 17496 net.cpp:394] conv3 <- norm2
I0316 16:06:00.938082 17496 net.cpp:356] conv3 -> conv3
I0316 16:06:00.938091 17496 net.cpp:96] Setting up conv3
I0316 16:06:00.962245 17496 net.cpp:103] Top shape: 128 384 13 13 (8306688)
I0316 16:06:00.962286 17496 layer_factory.hpp:78] Creating layer relu3
I0316 16:06:00.962301 17496 net.cpp:67] Creating Layer relu3
I0316 16:06:00.962311 17496 net.cpp:394] relu3 <- conv3
I0316 16:06:00.962324 17496 net.cpp:345] relu3 -> conv3 (in-place)
I0316 16:06:00.962337 17496 net.cpp:96] Setting up relu3
I0316 16:06:00.962349 17496 net.cpp:103] Top shape: 128 384 13 13 (8306688)
I0316 16:06:00.962355 17496 layer_factory.hpp:78] Creating layer conv4
I0316 16:06:00.962368 17496 net.cpp:67] Creating Layer conv4
I0316 16:06:00.962373 17496 net.cpp:394] conv4 <- conv3
I0316 16:06:00.962379 17496 net.cpp:356] conv4 -> conv4
I0316 16:06:00.962388 17496 net.cpp:96] Setting up conv4
I0316 16:06:00.981968 17496 net.cpp:103] Top shape: 128 384 13 13 (8306688)
I0316 16:06:00.982014 17496 layer_factory.hpp:78] Creating layer relu4
I0316 16:06:00.982025 17496 net.cpp:67] Creating Layer relu4
I0316 16:06:00.982035 17496 net.cpp:394] relu4 <- conv4
I0316 16:06:00.982044 17496 net.cpp:345] relu4 -> conv4 (in-place)
I0316 16:06:00.982054 17496 net.cpp:96] Setting up relu4
I0316 16:06:00.982065 17496 net.cpp:103] Top shape: 128 384 13 13 (8306688)
I0316 16:06:00.982074 17496 layer_factory.hpp:78] Creating layer conv5
I0316 16:06:00.982086 17496 net.cpp:67] Creating Layer conv5
I0316 16:06:00.982095 17496 net.cpp:394] conv5 <- conv4
I0316 16:06:00.982110 17496 net.cpp:356] conv5 -> conv5
I0316 16:06:00.982125 17496 net.cpp:96] Setting up conv5
I0316 16:06:00.994973 17496 net.cpp:103] Top shape: 128 256 13 13 (5537792)
I0316 16:06:00.995075 17496 layer_factory.hpp:78] Creating layer relu5
I0316 16:06:00.995093 17496 net.cpp:67] Creating Layer relu5
I0316 16:06:00.995102 17496 net.cpp:394] relu5 <- conv5
I0316 16:06:00.995117 17496 net.cpp:345] relu5 -> conv5 (in-place)
I0316 16:06:00.995131 17496 net.cpp:96] Setting up relu5
I0316 16:06:00.995143 17496 net.cpp:103] Top shape: 128 256 13 13 (5537792)
I0316 16:06:00.995149 17496 layer_factory.hpp:78] Creating layer pool5
I0316 16:06:00.995160 17496 net.cpp:67] Creating Layer pool5
I0316 16:06:00.995187 17496 net.cpp:394] pool5 <- conv5
I0316 16:06:00.995194 17496 net.cpp:356] pool5 -> pool5
I0316 16:06:00.995204 17496 net.cpp:96] Setting up pool5
I0316 16:06:00.995220 17496 net.cpp:103] Top shape: 128 256 6 6 (1179648)
I0316 16:06:00.995225 17496 layer_factory.hpp:78] Creating layer fc6
I0316 16:06:00.995266 17496 net.cpp:67] Creating Layer fc6
I0316 16:06:00.995272 17496 net.cpp:394] fc6 <- pool5
I0316 16:06:00.995282 17496 net.cpp:356] fc6 -> fc6
I0316 16:06:00.995291 17496 net.cpp:96] Setting up fc6
I0316 16:06:02.058001 17496 net.cpp:103] Top shape: 128 4096 1 1 (524288)
I0316 16:06:02.058094 17496 layer_factory.hpp:78] Creating layer relu6
I0316 16:06:02.058110 17496 net.cpp:67] Creating Layer relu6
I0316 16:06:02.058120 17496 net.cpp:394] relu6 <- fc6
I0316 16:06:02.058135 17496 net.cpp:345] relu6 -> fc6 (in-place)
I0316 16:06:02.058146 17496 net.cpp:96] Setting up relu6
I0316 16:06:02.058178 17496 net.cpp:103] Top shape: 128 4096 1 1 (524288)
I0316 16:06:02.058183 17496 layer_factory.hpp:78] Creating layer drop6
I0316 16:06:02.058199 17496 net.cpp:67] Creating Layer drop6
I0316 16:06:02.058204 17496 net.cpp:394] drop6 <- fc6
I0316 16:06:02.058212 17496 net.cpp:345] drop6 -> fc6 (in-place)
I0316 16:06:02.058219 17496 net.cpp:96] Setting up drop6
I0316 16:06:02.058228 17496 net.cpp:103] Top shape: 128 4096 1 1 (524288)
I0316 16:06:02.058233 17496 layer_factory.hpp:78] Creating layer fc7
I0316 16:06:02.058243 17496 net.cpp:67] Creating Layer fc7
I0316 16:06:02.058248 17496 net.cpp:394] fc7 <- fc6
I0316 16:06:02.058254 17496 net.cpp:356] fc7 -> fc7
I0316 16:06:02.058264 17496 net.cpp:96] Setting up fc7
I0316 16:06:02.515954 17496 net.cpp:103] Top shape: 128 4096 1 1 (524288)
I0316 16:06:02.516010 17496 layer_factory.hpp:78] Creating layer relu7
I0316 16:06:02.516019 17496 net.cpp:67] Creating Layer relu7
I0316 16:06:02.516026 17496 net.cpp:394] relu7 <- fc7
I0316 16:06:02.516036 17496 net.cpp:345] relu7 -> fc7 (in-place)
I0316 16:06:02.516047 17496 net.cpp:96] Setting up relu7
I0316 16:06:02.516065 17496 net.cpp:103] Top shape: 128 4096 1 1 (524288)
I0316 16:06:02.516072 17496 layer_factory.hpp:78] Creating layer drop7
I0316 16:06:02.516078 17496 net.cpp:67] Creating Layer drop7
I0316 16:06:02.516083 17496 net.cpp:394] drop7 <- fc7
I0316 16:06:02.516089 17496 net.cpp:345] drop7 -> fc7 (in-place)
I0316 16:06:02.516095 17496 net.cpp:96] Setting up drop7
I0316 16:06:02.516100 17496 net.cpp:103] Top shape: 128 4096 1 1 (524288)
I0316 16:06:02.516105 17496 layer_factory.hpp:78] Creating layer fc8_objDetect
I0316 16:06:02.516114 17496 net.cpp:67] Creating Layer fc8_objDetect
I0316 16:06:02.516119 17496 net.cpp:394] fc8_objDetect <- fc7
I0316 16:06:02.516129 17496 net.cpp:356] fc8_objDetect -> fc8_objDetect
I0316 16:06:02.516137 17496 net.cpp:96] Setting up fc8_objDetect
I0316 16:06:02.516366 17496 net.cpp:103] Top shape: 128 2 1 1 (256)
I0316 16:06:02.516373 17496 layer_factory.hpp:78] Creating layer loss
I0316 16:06:02.516387 17496 net.cpp:67] Creating Layer loss
I0316 16:06:02.516393 17496 net.cpp:394] loss <- fc8_objDetect
I0316 16:06:02.516399 17496 net.cpp:394] loss <- label
I0316 16:06:02.516407 17496 net.cpp:356] loss -> loss
I0316 16:06:02.516418 17496 net.cpp:96] Setting up loss
I0316 16:06:02.516433 17496 net.cpp:103] Top shape: 1 1 1 1 (1)
I0316 16:06:02.516438 17496 net.cpp:109]     with loss weight 1
I0316 16:06:02.516499 17496 net.cpp:170] loss needs backward computation.
I0316 16:06:02.516504 17496 net.cpp:170] fc8_objDetect needs backward computation.
I0316 16:06:02.516508 17496 net.cpp:170] drop7 needs backward computation.
I0316 16:06:02.516512 17496 net.cpp:170] relu7 needs backward computation.
I0316 16:06:02.516516 17496 net.cpp:170] fc7 needs backward computation.
…
I0316 16:06:02.517590 17496 net.cpp:275] The NetState phase (1) differed from the phase (0) specified by a rule in layer data
I0316 16:06:02.517809 17496 net.cpp:39] Initializing net from parameters: 
name: "CaffeNet"
layers {
  top: "data"
  top: "label"
  name: "data"
  type: DATA
  data_param {
    source: "/media/lifelogging/HDD_2TB/Object-Detection-CNN_Data/objDetectCNN_val_lmdb"
    batch_size: 50
    backend: LMDB
  }
  include {
    phase: TEST
  }
  transform_param {
    mirror: false
    crop_size: 227
    mean_file: "/usr/local/caffe-dev/examples/objDetectCNN/imagenet_mean.binaryproto"
  }
}
layers {
  bottom: "data"
  top: "conv1"
  name: "conv1"
  type: CONVOLUTION
  blobs_lr: 1
  blobs_lr: 2
  weight_decay: 1
  weight_decay: 0
  convolution_param {
    num_output: 96
    kernel_size: 11
    stride: 4
    weight_filler {
      type: "gaussian"
      std: 0.01
    }
    bias_filler {
      type: "constant"
      value: 0
    }
  }
}
layers {
  bottom: "conv1"
  top: "conv1"
  name: "relu1"
  type: RELU
}
layers {
  bottom: "conv1"
  top: "pool1"
  name: "pool1"
  type: POOLING
  pooling_param {
    pool: MAX
    kernel_size: 3
    stride: 2
  }
}
layers {
  bottom: "pool1"
  top: "norm1"
  name: "norm1"
  type: LRN
  lrn_param {
    local_size: 5
    alpha: 0.0001
    beta: 0.75
  }
}
layers {
  bottom: "norm1"
  top: "conv2"
  name: "conv2"
  type: CONVOLUTION
  blobs_lr: 1
  blobs_lr: 2
  weight_decay: 1
  weight_decay: 0
  convolution_param {
    num_output: 256
    pad: 2
    kernel_size: 5
    group: 2
    weight_filler {
      type: "gaussian"
      std: 0.01
    }
    bias_filler {
      type: "constant"
      value: 1
    }
  }
}
layers {
  bottom: "conv2"
  top: "conv2"
  name: "relu2"
  type: RELU
}
layers {
  bottom: "conv2"
  top: "pool2"
  name: "pool2"
  type: POOLING
  pooling_param {
    pool: MAX
    kernel_size: 3
    stride: 2
  }
}
layers {
  bottom: "pool2"
  top: "norm2"
  name: "norm2"
  type: LRN
  lrn_param {
    local_size: 5
    alpha: 0.0001
    beta: 0.75
  }
}
layers {
  bottom: "norm2"
  top: "conv3"
  name: "conv3"
  type: CONVOLUTION
  blobs_lr: 1
  blobs_lr: 2
  weight_decay: 1
  weight_decay: 0
  convolution_param {
    num_output: 384
    pad: 1
    kernel_size: 3
    weight_filler {
      type: "gaussian"
      std: 0.01
    }
    bias_filler {
      type: "constant"
      value: 0
    }
  }
}
layers {
  bottom: "conv3"
  top: "conv3"
  name: "relu3"
  type: RELU
}
layers {
  bottom: "conv3"
  top: "conv4"
  name: "conv4"
  type: CONVOLUTION
  blobs_lr: 1
  blobs_lr: 2
  weight_decay: 1
  weight_decay: 0
  convolution_param {
    num_output: 384
    pad: 1
    kernel_size: 3
    group: 2
    weight_filler {
      type: "gaussian"
      std: 0.01
    }
    bias_filler {
      type: "constant"
      value: 1
    }
  }
}
layers {
  bottom: "conv4"
  top: "conv4"
  name: "relu4"
  type: RELU
}
layers {
  bottom: "conv4"
  top: "conv5"
  name: "conv5"
  type: CONVOLUTION
  blobs_lr: 1
  blobs_lr: 2
  weight_decay: 1
  weight_decay: 0
  convolution_param {
    num_output: 256
    pad: 1
    kernel_size: 3
    group: 2
    weight_filler {
      type: "gaussian"
      std: 0.01
    }
    bias_filler {
      type: "constant"
      value: 1
    }
  }
}
layers {
  bottom: "conv5"
  top: "conv5"
  name: "relu5"
  type: RELU
}
layers {
  bottom: "conv5"
  top: "pool5"
  name: "pool5"
  type: POOLING
  pooling_param {
    pool: MAX
    kernel_size: 3
    stride: 2
  }
}
layers {
  bottom: "pool5"
  top: "fc6"
  name: "fc6"
  type: INNER_PRODUCT
  blobs_lr: 5
  blobs_lr: 10
  weight_decay: 1
  weight_decay: 0
  inner_product_param {
    num_output: 4096
    weight_filler {
      type: "gaussian"
      std: 0.005
    }
    bias_filler {
      type: "constant"
      value: 1
    }
  }
}
layers {
  bottom: "fc6"
  top: "fc6"
  name: "relu6"
  type: RELU
}
layers {
  bottom: "fc6"
  top: "fc6"
  name: "drop6"
  type: DROPOUT
  dropout_param {
    dropout_ratio: 0.5
  }
}
layers {
  bottom: "fc6"
  top: "fc7"
  name: "fc7"
  type: INNER_PRODUCT
  blobs_lr: 8
  blobs_lr: 15
  weight_decay: 1
  weight_decay: 0
  inner_product_param {
    num_output: 4096
    weight_filler {
      type: "gaussian"
      std: 0.005
    }
    bias_filler {
      type: "constant"
      value: 1
    }
  }
}
layers {
  bottom: "fc7"
  top: "fc7"
  name: "relu7"
  type: RELU
}
layers {
  bottom: "fc7"
  top: "fc7"
  name: "drop7"
  type: DROPOUT
  dropout_param {
    dropout_ratio: 0.5
  }
}
layers {
  bottom: "fc7"
  top: "fc8_objDetect"
  name: "fc8_objDetect"
  type: INNER_PRODUCT
  blobs_lr: 10
  blobs_lr: 20
  weight_decay: 1
  weight_decay: 0
  inner_product_param {
    num_output: 2
    weight_filler {
      type: "gaussian"
      std: 0.01
    }
    bias_filler {
      type: "constant"
      value: 0
    }
  }
}
layers {
  bottom: "fc8_objDetect"
  bottom: "label"
  top: "accuracy"
  name: "accuracy"
  type: ACCURACY
  include {
    phase: TEST
  }
}
layers {
  bottom: "fc8_objDetect"
  bottom: "label"
  top: "loss"
  name: "loss"
  type: SOFTMAX_LOSS
}
state {
  phase: TEST
}
I0316 16:06:02.517978 17496 layer_factory.hpp:78] Creating layer data
I0316 16:06:02.517992 17496 data_transformer.cpp:24] Loading mean file from/usr/local/caffe-dev/examples/objDetectCNN/imagenet_mean.binaryproto
I0316 16:06:02.520076 17496 net.cpp:67] Creating Layer data
I0316 16:06:02.520155 17496 net.cpp:356] data -> data
I0316 16:06:02.520184 17496 net.cpp:356] data -> label
I0316 16:06:02.520192 17496 net.cpp:96] Setting up data
I0316 16:06:02.520200 17496 data_layer.cpp:32] Opening dataset /media/lifelogging/HDD_2TB/Object-Detection-CNN_Data/objDetectCNN_val_lmdb
I0316 16:06:02.537688 17496 data_layer.cpp:71] output data size: 50,3,227,227
I0316 16:06:02.557035 17496 net.cpp:103] Top shape: 50 3 227 227 (7729350)
I0316 16:06:02.557090 17496 net.cpp:103] Top shape: 50 1 1 1 (50)
I0316 16:06:02.557101 17496 layer_factory.hpp:78] Creating layer label_data_1_split
I0316 16:06:02.557131 17496 net.cpp:67] Creating Layer label_data_1_split
I0316 16:06:02.557138 17496 net.cpp:394] label_data_1_split <- label
I0316 16:06:02.557148 17496 net.cpp:356] label_data_1_split -> label_data_1_split_0
I0316 16:06:02.557165 17496 net.cpp:356] label_data_1_split -> label_data_1_split_1
I0316 16:06:02.557173 17496 net.cpp:96] Setting up label_data_1_split
I0316 16:06:02.557181 17496 net.cpp:103] Top shape: 50 1 1 1 (50)
I0316 16:06:02.557186 17496 net.cpp:103] Top shape: 50 1 1 1 (50)
I0316 16:06:02.557190 17496 layer_factory.hpp:78] Creating layer conv1
I0316 16:06:02.557201 17496 net.cpp:67] Creating Layer conv1
I0316 16:06:02.557206 17496 net.cpp:394] conv1 <- data
I0316 16:06:02.557230 17496 net.cpp:356] conv1 -> conv1
I0316 16:06:02.557240 17496 net.cpp:96] Setting up conv1
I0316 16:06:02.558300 17496 net.cpp:103] Top shape: 50 96 55 55 (14520000)
I0316 16:06:02.558339 17496 layer_factory.hpp:78] Creating layer relu1
I0316 16:06:02.558363 17496 net.cpp:67] Creating Layer relu1
I0316 16:06:02.558369 17496 net.cpp:394] relu1 <- conv1
I0316 16:06:02.558377 17496 net.cpp:345] relu1 -> conv1 (in-place)
I0316 16:06:02.558385 17496 net.cpp:96] Setting up relu1
I0316 16:06:02.558394 17496 net.cpp:103] Top shape: 50 96 55 55 (14520000)
I0316 16:06:02.558399 17496 layer_factory.hpp:78] Creating layer pool1
I0316 16:06:02.558409 17496 net.cpp:67] Creating Layer pool1
I0316 16:06:02.558414 17496 net.cpp:394] pool1 <- conv1
I0316 16:06:02.558420 17496 net.cpp:356] pool1 -> pool1
I0316 16:06:02.558428 17496 net.cpp:96] Setting up pool1
I0316 16:06:02.558437 17496 net.cpp:103] Top shape: 50 96 27 27 (3499200)
I0316 16:06:02.558444 17496 layer_factory.hpp:78] Creating layer norm1
I0316 16:06:02.558450 17496 net.cpp:67] Creating Layer norm1
I0316 16:06:02.558454 17496 net.cpp:394] norm1 <- pool1
I0316 16:06:02.558461 17496 net.cpp:356] norm1 -> norm1
I0316 16:06:02.558468 17496 net.cpp:96] Setting up norm1
I0316 16:06:02.558473 17496 net.cpp:103] Top shape: 50 96 27 27 (3499200)
I0316 16:06:02.558478 17496 layer_factory.hpp:78] Creating layer conv2
I0316 16:06:02.558487 17496 net.cpp:67] Creating Layer conv2
I0316 16:06:02.558491 17496 net.cpp:394] conv2 <- norm1
I0316 16:06:02.558498 17496 net.cpp:356] conv2 -> conv2
I0316 16:06:02.558506 17496 net.cpp:96] Setting up conv2
I0316 16:06:02.566999 17496 net.cpp:103] Top shape: 50 256 27 27 (9331200)
I0316 16:06:02.567059 17496 layer_factory.hpp:78] Creating layer relu2
I0316 16:06:02.567076 17496 net.cpp:67] Creating Layer relu2
I0316 16:06:02.567087 17496 net.cpp:394] relu2 <- conv2
I0316 16:06:02.567101 17496 net.cpp:345] relu2 -> conv2 (in-place)
I0316 16:06:02.567116 17496 net.cpp:96] Setting up relu2
I0316 16:06:02.567126 17496 net.cpp:103] Top shape: 50 256 27 27 (9331200)
I0316 16:06:02.567131 17496 layer_factory.hpp:78] Creating layer pool2
I0316 16:06:02.567140 17496 net.cpp:67] Creating Layer pool2
I0316 16:06:02.567144 17496 net.cpp:394] pool2 <- conv2
I0316 16:06:02.567153 17496 net.cpp:356] pool2 -> pool2
I0316 16:06:02.567163 17496 net.cpp:96] Setting up pool2
I0316 16:06:02.567173 17496 net.cpp:103] Top shape: 50 256 13 13 (2163200)
I0316 16:06:02.567183 17496 layer_factory.hpp:78] Creating layer norm2
I0316 16:06:02.567195 17496 net.cpp:67] Creating Layer norm2
I0316 16:06:02.567205 17496 net.cpp:394] norm2 <- pool2
I0316 16:06:02.567217 17496 net.cpp:356] norm2 -> norm2
I0316 16:06:02.567225 17496 net.cpp:96] Setting up norm2
I0316 16:06:02.567231 17496 net.cpp:103] Top shape: 50 256 13 13 (2163200)
I0316 16:06:02.567235 17496 layer_factory.hpp:78] Creating layer conv3
I0316 16:06:02.567246 17496 net.cpp:67] Creating Layer conv3
I0316 16:06:02.567251 17496 net.cpp:394] conv3 <- norm2
I0316 16:06:02.567258 17496 net.cpp:356] conv3 -> conv3
I0316 16:06:02.567265 17496 net.cpp:96] Setting up conv3
I0316 16:06:02.591702 17496 net.cpp:103] Top shape: 50 384 13 13 (3244800)
I0316 16:06:02.591806 17496 layer_factory.hpp:78] Creating layer relu3
I0316 16:06:02.591827 17496 net.cpp:67] Creating Layer relu3
I0316 16:06:02.591841 17496 net.cpp:394] relu3 <- conv3
I0316 16:06:02.591863 17496 net.cpp:345] relu3 -> conv3 (in-place)
I0316 16:06:02.591883 17496 net.cpp:96] Setting up relu3
I0316 16:06:02.591898 17496 net.cpp:103] Top shape: 50 384 13 13 (3244800)
I0316 16:06:02.591908 17496 layer_factory.hpp:78] Creating layer conv4
I0316 16:06:02.591923 17496 net.cpp:67] Creating Layer conv4
I0316 16:06:02.591933 17496 net.cpp:394] conv4 <- conv3
I0316 16:06:02.591948 17496 net.cpp:356] conv4 -> conv4
I0316 16:06:02.591964 17496 net.cpp:96] Setting up conv4
I0316 16:06:02.611320 17496 net.cpp:103] Top shape: 50 384 13 13 (3244800)
I0316 16:06:02.611404 17496 layer_factory.hpp:78] Creating layer relu4
I0316 16:06:02.611443 17496 net.cpp:67] Creating Layer relu4
I0316 16:06:02.611454 17496 net.cpp:394] relu4 <- conv4
I0316 16:06:02.611466 17496 net.cpp:345] relu4 -> conv4 (in-place)
I0316 16:06:02.611479 17496 net.cpp:96] Setting up relu4
I0316 16:06:02.611490 17496 net.cpp:103] Top shape: 50 384 13 13 (3244800)
I0316 16:06:02.611507 17496 layer_factory.hpp:78] Creating layer conv5
I0316 16:06:02.611520 17496 net.cpp:67] Creating Layer conv5
I0316 16:06:02.611524 17496 net.cpp:394] conv5 <- conv4
I0316 16:06:02.611532 17496 net.cpp:356] conv5 -> conv5
I0316 16:06:02.611546 17496 net.cpp:96] Setting up conv5
I0316 16:06:02.624716 17496 net.cpp:103] Top shape: 50 256 13 13 (2163200)
I0316 16:06:02.624825 17496 layer_factory.hpp:78] Creating layer relu5
I0316 16:06:02.624841 17496 net.cpp:67] Creating Layer relu5
I0316 16:06:02.624851 17496 net.cpp:394] relu5 <- conv5
I0316 16:06:02.624863 17496 net.cpp:345] relu5 -> conv5 (in-place)
I0316 16:06:02.624876 17496 net.cpp:96] Setting up relu5
I0316 16:06:02.624887 17496 net.cpp:103] Top shape: 50 256 13 13 (2163200)
I0316 16:06:02.624892 17496 layer_factory.hpp:78] Creating layer pool5
I0316 16:06:02.624908 17496 net.cpp:67] Creating Layer pool5
I0316 16:06:02.624913 17496 net.cpp:394] pool5 <- conv5
I0316 16:06:02.624920 17496 net.cpp:356] pool5 -> pool5
I0316 16:06:02.624929 17496 net.cpp:96] Setting up pool5
I0316 16:06:02.624944 17496 net.cpp:103] Top shape: 50 256 6 6 (460800)
I0316 16:06:02.624949 17496 layer_factory.hpp:78] Creating layer fc6
I0316 16:06:02.624961 17496 net.cpp:67] Creating Layer fc6
I0316 16:06:02.624966 17496 net.cpp:394] fc6 <- pool5
I0316 16:06:02.624974 17496 net.cpp:356] fc6 -> fc6
I0316 16:06:02.624985 17496 net.cpp:96] Setting up fc6
I0316 16:06:03.724571 17496 net.cpp:103] Top shape: 50 4096 1 1 (204800)
I0316 16:06:03.724663 17496 layer_factory.hpp:78] Creating layer relu6
I0316 16:06:03.724681 17496 net.cpp:67] Creating Layer relu6
I0316 16:06:03.724690 17496 net.cpp:394] relu6 <- fc6
I0316 16:06:03.724704 17496 net.cpp:345] relu6 -> fc6 (in-place)
I0316 16:06:03.724714 17496 net.cpp:96] Setting up relu6
I0316 16:06:03.724746 17496 net.cpp:103] Top shape: 50 4096 1 1 (204800)
I0316 16:06:03.724752 17496 layer_factory.hpp:78] Creating layer drop6
I0316 16:06:03.724761 17496 net.cpp:67] Creating Layer drop6
I0316 16:06:03.724766 17496 net.cpp:394] drop6 <- fc6
I0316 16:06:03.724773 17496 net.cpp:345] drop6 -> fc6 (in-place)
I0316 16:06:03.724781 17496 net.cpp:96] Setting up drop6
I0316 16:06:03.724787 17496 net.cpp:103] Top shape: 50 4096 1 1 (204800)
I0316 16:06:03.724792 17496 layer_factory.hpp:78] Creating layer fc7
I0316 16:06:03.724802 17496 net.cpp:67] Creating Layer fc7
I0316 16:06:03.724807 17496 net.cpp:394] fc7 <- fc6
I0316 16:06:03.724813 17496 net.cpp:356] fc7 -> fc7
I0316 16:06:03.724823 17496 net.cpp:96] Setting up fc7
I0316 16:06:04.186281 17496 net.cpp:103] Top shape: 50 4096 1 1 (204800)
I0316 16:06:04.186391 17496 layer_factory.hpp:78] Creating layer relu7
I0316 16:06:04.186414 17496 net.cpp:67] Creating Layer relu7
I0316 16:06:04.186424 17496 net.cpp:394] relu7 <- fc7
I0316 16:06:04.186445 17496 net.cpp:345] relu7 -> fc7 (in-place)
I0316 16:06:04.186461 17496 net.cpp:96] Setting up relu7
I0316 16:06:04.186496 17496 net.cpp:103] Top shape: 50 4096 1 1 (204800)
I0316 16:06:04.186502 17496 layer_factory.hpp:78] Creating layer drop7
I0316 16:06:04.186512 17496 net.cpp:67] Creating Layer drop7
I0316 16:06:04.186517 17496 net.cpp:394] drop7 <- fc7
I0316 16:06:04.186522 17496 net.cpp:345] drop7 -> fc7 (in-place)
I0316 16:06:04.186530 17496 net.cpp:96] Setting up drop7
I0316 16:06:04.186538 17496 net.cpp:103] Top shape: 50 4096 1 1 (204800)
I0316 16:06:04.186543 17496 layer_factory.hpp:78] Creating layer fc8_objDetect
I0316 16:06:04.186555 17496 net.cpp:67] Creating Layer fc8_objDetect
I0316 16:06:04.186560 17496 net.cpp:394] fc8_objDetect <- fc7
I0316 16:06:04.186569 17496 net.cpp:356] fc8_objDetect -> fc8_objDetect
I0316 16:06:04.186586 17496 net.cpp:96] Setting up fc8_objDetect
I0316 16:06:04.186841 17496 net.cpp:103] Top shape: 50 2 1 1 (100)
I0316 16:06:04.186884 17496 layer_factory.hpp:78] Creating layer fc8_objDetect_fc8_objDetect_0_split
I0316 16:06:04.186895 17496 net.cpp:67] Creating Layer fc8_objDetect_fc8_objDetect_0_split
I0316 16:06:04.186902 17496 net.cpp:394] fc8_objDetect_fc8_objDetect_0_split <- fc8_objDetect
I0316 16:06:04.186921 17496 net.cpp:356] fc8_objDetect_fc8_objDetect_0_split -> fc8_objDetect_fc8_objDetect_0_split_0
I0316 16:06:04.186930 17496 net.cpp:356] fc8_objDetect_fc8_objDetect_0_split -> fc8_objDetect_fc8_objDetect_0_split_1
I0316 16:06:04.186939 17496 net.cpp:96] Setting up fc8_objDetect_fc8_objDetect_0_split
I0316 16:06:04.186945 17496 net.cpp:103] Top shape: 50 2 1 1 (100)
I0316 16:06:04.186950 17496 net.cpp:103] Top shape: 50 2 1 1 (100)
I0316 16:06:04.186955 17496 layer_factory.hpp:78] Creating layer accuracy
I0316 16:06:04.186972 17496 net.cpp:67] Creating Layer accuracy
I0316 16:06:04.186978 17496 net.cpp:394] accuracy <- fc8_objDetect_fc8_objDetect_0_split_0
I0316 16:06:04.186983 17496 net.cpp:394] accuracy <- label_data_1_split_0
I0316 16:06:04.186990 17496 net.cpp:356] accuracy -> accuracy
I0316 16:06:04.186997 17496 net.cpp:96] Setting up accuracy
I0316 16:06:04.187005 17496 net.cpp:103] Top shape: 1 1 1 1 (1)
I0316 16:06:04.187010 17496 layer_factory.hpp:78] Creating layer loss
I0316 16:06:04.187019 17496 net.cpp:67] Creating Layer loss
I0316 16:06:04.187024 17496 net.cpp:394] loss <- fc8_objDetect_fc8_objDetect_0_split_1
I0316 16:06:04.187029 17496 net.cpp:394] loss <- label_data_1_split_1
I0316 16:06:04.187036 17496 net.cpp:356] loss -> loss
I0316 16:06:04.187043 17496 net.cpp:96] Setting up loss
I0316 16:06:04.187053 17496 net.cpp:103] Top shape: 1 1 1 1 (1)
I0316 16:06:04.187057 17496 net.cpp:109]     with loss weight 1
I0316 16:06:04.187089 17496 net.cpp:170] loss needs backward computation.
I0316 16:06:04.187094 17496 net.cpp:172] accuracy does not need backward computation.
I0316 16:06:04.187099 17496 net.cpp:170] fc8_objDetect_fc8_objDetect_0_split needs backward computation.
I0316 16:06:04.187103 17496 net.cpp:170] fc8_objDetect needs backward computation.
…
