…
I0306 22:07:12.533431 10438 net.cpp:275] The NetState phase (0) differed from the phase (1) specified by a rule in layer accuracy
I0306 22:07:12.533695 10438 net.cpp:39] Initializing net from parameters: 
name: "CaffeNet"
layers {
  top: "data"
  top: "label"
  name: "data"
  type: DATA
  data_param {
    source: "/media/lifelogging/HDD_2TB/Objects_Detection/data_split/objDetectCNN_train_lmdb"
    batch_size: 128
    backend: LMDB
  }
  include {
    phase: TRAIN
  }
  transform_param {
    mirror: true
    crop_size: 227
    mean_file: "/usr/local/caffe-dev/examples/objDetectCNN/objDetectCNN_mean.binaryproto"
  }
}
layers {
  bottom: "data"
  top: "conv1"
  name: "conv1"
  type: CONVOLUTION
  blobs_lr: 1
  blobs_lr: 2
  weight_decay: 1
  weight_decay: 0
  convolution_param {
    num_output: 96
    kernel_size: 11
    stride: 4
    weight_filler {
      type: "gaussian"
      std: 0.01
    }
    bias_filler {
      type: "constant"
      value: 0
    }
  }
}
layers {
  bottom: "conv1"
  top: "conv1"
  name: "relu1"
  type: RELU
}
layers {
  bottom: "conv1"
  top: "pool1"
  name: "pool1"
  type: POOLING
  pooling_param {
    pool: MAX
    kernel_size: 3
    stride: 2
  }
}
layers {
  bottom: "pool1"
  top: "norm1"
  name: "norm1"
  type: LRN
  lrn_param {
    local_size: 5
    alpha: 0.0001
    beta: 0.75
  }
}
layers {
  bottom: "norm1"
  top: "conv2"
  name: "conv2"
  type: CONVOLUTION
  blobs_lr: 1
  blobs_lr: 2
  weight_decay: 1
  weight_decay: 0
  convolution_param {
    num_output: 256
    pad: 2
    kernel_size: 5
    group: 2
    weight_filler {
      type: "gaussian"
      std: 0.01
    }
    bias_filler {
      type: "constant"
      value: 1
    }
  }
}
layers {
  bottom: "conv2"
  top: "conv2"
  name: "relu2"
  type: RELU
}
layers {
  bottom: "conv2"
  top: "pool2"
  name: "pool2"
  type: POOLING
  pooling_param {
    pool: MAX
    kernel_size: 3
    stride: 2
  }
}
layers {
  bottom: "pool2"
  top: "norm2"
  name: "norm2"
  type: LRN
  lrn_param {
    local_size: 5
    alpha: 0.0001
    beta: 0.75
  }
}
layers {
  bottom: "norm2"
  top: "conv3"
  name: "conv3"
  type: CONVOLUTION
  blobs_lr: 1
  blobs_lr: 2
  weight_decay: 1
  weight_decay: 0
  convolution_param {
    num_output: 384
    pad: 1
    kernel_size: 3
    weight_filler {
      type: "gaussian"
      std: 0.01
    }
    bias_filler {
      type: "constant"
      value: 0
    }
  }
}
layers {
  bottom: "conv3"
  top: "conv3"
  name: "relu3"
  type: RELU
}
layers {
  bottom: "conv3"
  top: "conv4"
  name: "conv4"
  type: CONVOLUTION
  blobs_lr: 1
  blobs_lr: 2
  weight_decay: 1
  weight_decay: 0
  convolution_param {
    num_output: 384
    pad: 1
    kernel_size: 3
    group: 2
    weight_filler {
      type: "gaussian"
      std: 0.01
    }
    bias_filler {
      type: "constant"
      value: 1
    }
  }
}
layers {
  bottom: "conv4"
  top: "conv4"
  name: "relu4"
  type: RELU
}
layers {
  bottom: "conv4"
  top: "conv5"
  name: "conv5"
  type: CONVOLUTION
  blobs_lr: 1
  blobs_lr: 2
  weight_decay: 1
  weight_decay: 0
  convolution_param {
    num_output: 256
    pad: 1
    kernel_size: 3
    group: 2
    weight_filler {
      type: "gaussian"
      std: 0.01
    }
    bias_filler {
      type: "constant"
      value: 1
    }
  }
}
layers {
  bottom: "conv5"
  top: "conv5"
  name: "relu5"
  type: RELU
}
layers {
  bottom: "conv5"
  top: "pool5"
  name: "pool5"
  type: POOLING
  pooling_param {
    pool: MAX
    kernel_size: 3
    stride: 2
  }
}
layers {
  bottom: "pool5"
  top: "fc6"
  name: "fc6"
  type: INNER_PRODUCT
  blobs_lr: 1
  blobs_lr: 2
  weight_decay: 1
  weight_decay: 0
  inner_product_param {
    num_output: 4096
    weight_filler {
      type: "gaussian"
      std: 0.005
    }
    bias_filler {
      type: "constant"
      value: 1
    }
  }
}
layers {
  bottom: "fc6"
  top: "fc6"
  name: "relu6"
  type: RELU
}
layers {
  bottom: "fc6"
  top: "fc6"
  name: "drop6"
  type: DROPOUT
  dropout_param {
    dropout_ratio: 0.5
  }
}
layers {
  bottom: "fc6"
  top: "fc7"
  name: "fc7"
  type: INNER_PRODUCT
  blobs_lr: 1
  blobs_lr: 2
  weight_decay: 1
  weight_decay: 0
  inner_product_param {
    num_output: 4096
    weight_filler {
      type: "gaussian"
      std: 0.005
    }
    bias_filler {
      type: "constant"
      value: 1
    }
  }
}
layers {
  bottom: "fc7"
  top: "fc7"
  name: "relu7"
  type: RELU
}
layers {
  bottom: "fc7"
  top: "fc7"
  name: "drop7"
  type: DROPOUT
  dropout_param {
    dropout_ratio: 0.5
  }
}
layers {
  bottom: "fc7"
  top: "fc8"
  name: "fc8"
  type: INNER_PRODUCT
  blobs_lr: 1
  blobs_lr: 2
  weight_decay: 1
  weight_decay: 0
  inner_product_param {
    num_output: 2
    weight_filler {
      type: "gaussian"
      std: 0.01
    }
    bias_filler {
      type: "constant"
      value: 0
    }
  }
}
layers {
  bottom: "fc8"
  bottom: "label"
  top: "loss"
  name: "loss"
  type: SOFTMAX_LOSS
}
state {
  phase: TRAIN
}
I0306 22:07:12.533836 10438 layer_factory.hpp:78] Creating layer data
I0306 22:07:12.533854 10438 data_transformer.cpp:24] Loading mean file from/usr/local/caffe-dev/examples/objDetectCNN/objDetectCNN_mean.binaryproto
I0306 22:07:12.536986 10438 net.cpp:67] Creating Layer data
I0306 22:07:12.537015 10438 net.cpp:356] data -> data
I0306 22:07:12.537039 10438 net.cpp:356] data -> label
I0306 22:07:12.537056 10438 net.cpp:96] Setting up data
I0306 22:07:12.537070 10438 data_layer.cpp:32] Opening dataset /media/lifelogging/HDD_2TB/Objects_Detection/data_split/objDetectCNN_train_lmdb
I0306 22:07:12.556314 10438 data_layer.cpp:71] output data size: 128,3,227,227
I0306 22:07:12.579699 10438 net.cpp:103] Top shape: 128 3 227 227 (19787136)
I0306 22:07:12.579741 10438 net.cpp:103] Top shape: 128 1 1 1 (128)
I0306 22:07:12.579752 10438 layer_factory.hpp:78] Creating layer conv1
I0306 22:07:12.579774 10438 net.cpp:67] Creating Layer conv1
I0306 22:07:12.579784 10438 net.cpp:394] conv1 <- data
I0306 22:07:12.579804 10438 net.cpp:356] conv1 -> conv1
I0306 22:07:12.579823 10438 net.cpp:96] Setting up conv1
I0306 22:07:12.597194 10438 net.cpp:103] Top shape: 128 96 55 55 (37171200)
I0306 22:07:12.597250 10438 layer_factory.hpp:78] Creating layer relu1
I0306 22:07:12.597267 10438 net.cpp:67] Creating Layer relu1
I0306 22:07:12.597276 10438 net.cpp:394] relu1 <- conv1
I0306 22:07:12.597288 10438 net.cpp:345] relu1 -> conv1 (in-place)
I0306 22:07:12.597301 10438 net.cpp:96] Setting up relu1
I0306 22:07:12.597314 10438 net.cpp:103] Top shape: 128 96 55 55 (37171200)
I0306 22:07:12.597322 10438 layer_factory.hpp:78] Creating layer pool1
I0306 22:07:12.597336 10438 net.cpp:67] Creating Layer pool1
I0306 22:07:12.597342 10438 net.cpp:394] pool1 <- conv1
I0306 22:07:12.597354 10438 net.cpp:356] pool1 -> pool1
I0306 22:07:12.597365 10438 net.cpp:96] Setting up pool1
I0306 22:07:12.597389 10438 net.cpp:103] Top shape: 128 96 27 27 (8957952)
I0306 22:07:12.597398 10438 layer_factory.hpp:78] Creating layer norm1
I0306 22:07:12.597414 10438 net.cpp:67] Creating Layer norm1
I0306 22:07:12.597422 10438 net.cpp:394] norm1 <- pool1
I0306 22:07:12.597431 10438 net.cpp:356] norm1 -> norm1
I0306 22:07:12.597441 10438 net.cpp:96] Setting up norm1
I0306 22:07:12.597463 10438 net.cpp:103] Top shape: 128 96 27 27 (8957952)
I0306 22:07:12.597471 10438 layer_factory.hpp:78] Creating layer conv2
I0306 22:07:12.597482 10438 net.cpp:67] Creating Layer conv2
I0306 22:07:12.597489 10438 net.cpp:394] conv2 <- norm1
I0306 22:07:12.597513 10438 net.cpp:356] conv2 -> conv2
I0306 22:07:12.597525 10438 net.cpp:96] Setting up conv2
I0306 22:07:12.608981 10438 net.cpp:103] Top shape: 128 256 27 27 (23887872)
I0306 22:07:12.609027 10438 layer_factory.hpp:78] Creating layer relu2
I0306 22:07:12.609045 10438 net.cpp:67] Creating Layer relu2
I0306 22:07:12.609056 10438 net.cpp:394] relu2 <- conv2
I0306 22:07:12.609073 10438 net.cpp:345] relu2 -> conv2 (in-place)
I0306 22:07:12.609087 10438 net.cpp:96] Setting up relu2
I0306 22:07:12.609102 10438 net.cpp:103] Top shape: 128 256 27 27 (23887872)
I0306 22:07:12.609112 10438 layer_factory.hpp:78] Creating layer pool2
I0306 22:07:12.609124 10438 net.cpp:67] Creating Layer pool2
I0306 22:07:12.609133 10438 net.cpp:394] pool2 <- conv2
I0306 22:07:12.609145 10438 net.cpp:356] pool2 -> pool2
I0306 22:07:12.609158 10438 net.cpp:96] Setting up pool2
I0306 22:07:12.609174 10438 net.cpp:103] Top shape: 128 256 13 13 (5537792)
I0306 22:07:12.609184 10438 layer_factory.hpp:78] Creating layer norm2
I0306 22:07:12.609202 10438 net.cpp:67] Creating Layer norm2
I0306 22:07:12.609211 10438 net.cpp:394] norm2 <- pool2
I0306 22:07:12.609225 10438 net.cpp:356] norm2 -> norm2
I0306 22:07:12.609239 10438 net.cpp:96] Setting up norm2
I0306 22:07:12.609249 10438 net.cpp:103] Top shape: 128 256 13 13 (5537792)
I0306 22:07:12.609258 10438 layer_factory.hpp:78] Creating layer conv3
I0306 22:07:12.609272 10438 net.cpp:67] Creating Layer conv3
I0306 22:07:12.609280 10438 net.cpp:394] conv3 <- norm2
I0306 22:07:12.609294 10438 net.cpp:356] conv3 -> conv3
I0306 22:07:12.609309 10438 net.cpp:96] Setting up conv3
I0306 22:07:12.638249 10438 net.cpp:103] Top shape: 128 384 13 13 (8306688)
I0306 22:07:12.638295 10438 layer_factory.hpp:78] Creating layer relu3
I0306 22:07:12.638310 10438 net.cpp:67] Creating Layer relu3
I0306 22:07:12.638319 10438 net.cpp:394] relu3 <- conv3
I0306 22:07:12.638330 10438 net.cpp:345] relu3 -> conv3 (in-place)
I0306 22:07:12.638341 10438 net.cpp:96] Setting up relu3
I0306 22:07:12.638353 10438 net.cpp:103] Top shape: 128 384 13 13 (8306688)
I0306 22:07:12.638361 10438 layer_factory.hpp:78] Creating layer conv4
I0306 22:07:12.638375 10438 net.cpp:67] Creating Layer conv4
I0306 22:07:12.638381 10438 net.cpp:394] conv4 <- conv3
I0306 22:07:12.638391 10438 net.cpp:356] conv4 -> conv4
I0306 22:07:12.638403 10438 net.cpp:96] Setting up conv4
I0306 22:07:12.662752 10438 net.cpp:103] Top shape: 128 384 13 13 (8306688)
I0306 22:07:12.662796 10438 layer_factory.hpp:78] Creating layer relu4
I0306 22:07:12.662808 10438 net.cpp:67] Creating Layer relu4
I0306 22:07:12.662817 10438 net.cpp:394] relu4 <- conv4
I0306 22:07:12.662832 10438 net.cpp:345] relu4 -> conv4 (in-place)
I0306 22:07:12.662844 10438 net.cpp:96] Setting up relu4
I0306 22:07:12.662854 10438 net.cpp:103] Top shape: 128 384 13 13 (8306688)
I0306 22:07:12.662863 10438 layer_factory.hpp:78] Creating layer conv5
I0306 22:07:12.662874 10438 net.cpp:67] Creating Layer conv5
I0306 22:07:12.662881 10438 net.cpp:394] conv5 <- conv4
I0306 22:07:12.662894 10438 net.cpp:356] conv5 -> conv5
I0306 22:07:12.662905 10438 net.cpp:96] Setting up conv5
I0306 22:07:12.678936 10438 net.cpp:103] Top shape: 128 256 13 13 (5537792)
I0306 22:07:12.678975 10438 layer_factory.hpp:78] Creating layer relu5
I0306 22:07:12.678987 10438 net.cpp:67] Creating Layer relu5
I0306 22:07:12.678995 10438 net.cpp:394] relu5 <- conv5
I0306 22:07:12.679009 10438 net.cpp:345] relu5 -> conv5 (in-place)
I0306 22:07:12.679021 10438 net.cpp:96] Setting up relu5
I0306 22:07:12.679033 10438 net.cpp:103] Top shape: 128 256 13 13 (5537792)
I0306 22:07:12.679039 10438 layer_factory.hpp:78] Creating layer pool5
I0306 22:07:12.679050 10438 net.cpp:67] Creating Layer pool5
I0306 22:07:12.679057 10438 net.cpp:394] pool5 <- conv5
I0306 22:07:12.679075 10438 net.cpp:356] pool5 -> pool5
I0306 22:07:12.679087 10438 net.cpp:96] Setting up pool5
I0306 22:07:12.679100 10438 net.cpp:103] Top shape: 128 256 6 6 (1179648)
I0306 22:07:12.679108 10438 layer_factory.hpp:78] Creating layer fc6
I0306 22:07:12.679127 10438 net.cpp:67] Creating Layer fc6
I0306 22:07:12.679147 10438 net.cpp:394] fc6 <- pool5
I0306 22:07:12.679159 10438 net.cpp:356] fc6 -> fc6
I0306 22:07:12.679170 10438 net.cpp:96] Setting up fc6
I0306 22:07:14.131618 10438 net.cpp:103] Top shape: 128 4096 1 1 (524288)
I0306 22:07:14.131662 10438 layer_factory.hpp:78] Creating layer relu6
I0306 22:07:14.131676 10438 net.cpp:67] Creating Layer relu6
I0306 22:07:14.131685 10438 net.cpp:394] relu6 <- fc6
I0306 22:07:14.131701 10438 net.cpp:345] relu6 -> fc6 (in-place)
I0306 22:07:14.131714 10438 net.cpp:96] Setting up relu6
I0306 22:07:14.131736 10438 net.cpp:103] Top shape: 128 4096 1 1 (524288)
I0306 22:07:14.131743 10438 layer_factory.hpp:78] Creating layer drop6
I0306 22:07:14.131757 10438 net.cpp:67] Creating Layer drop6
I0306 22:07:14.131763 10438 net.cpp:394] drop6 <- fc6
I0306 22:07:14.131773 10438 net.cpp:345] drop6 -> fc6 (in-place)
I0306 22:07:14.131783 10438 net.cpp:96] Setting up drop6
I0306 22:07:14.131794 10438 net.cpp:103] Top shape: 128 4096 1 1 (524288)
I0306 22:07:14.131801 10438 layer_factory.hpp:78] Creating layer fc7
I0306 22:07:14.131813 10438 net.cpp:67] Creating Layer fc7
I0306 22:07:14.131819 10438 net.cpp:394] fc7 <- fc6
I0306 22:07:14.131829 10438 net.cpp:356] fc7 -> fc7
I0306 22:07:14.131842 10438 net.cpp:96] Setting up fc7
I0306 22:07:14.767940 10438 net.cpp:103] Top shape: 128 4096 1 1 (524288)
I0306 22:07:14.767977 10438 layer_factory.hpp:78] Creating layer relu7
I0306 22:07:14.767990 10438 net.cpp:67] Creating Layer relu7
I0306 22:07:14.767998 10438 net.cpp:394] relu7 <- fc7
I0306 22:07:14.768013 10438 net.cpp:345] relu7 -> fc7 (in-place)
I0306 22:07:14.768025 10438 net.cpp:96] Setting up relu7
I0306 22:07:14.768044 10438 net.cpp:103] Top shape: 128 4096 1 1 (524288)
I0306 22:07:14.768052 10438 layer_factory.hpp:78] Creating layer drop7
I0306 22:07:14.768061 10438 net.cpp:67] Creating Layer drop7
I0306 22:07:14.768069 10438 net.cpp:394] drop7 <- fc7
I0306 22:07:14.768079 10438 net.cpp:345] drop7 -> fc7 (in-place)
I0306 22:07:14.768088 10438 net.cpp:96] Setting up drop7
I0306 22:07:14.768096 10438 net.cpp:103] Top shape: 128 4096 1 1 (524288)
I0306 22:07:14.768103 10438 layer_factory.hpp:78] Creating layer fc8
I0306 22:07:14.768113 10438 net.cpp:67] Creating Layer fc8
I0306 22:07:14.768121 10438 net.cpp:394] fc8 <- fc7
I0306 22:07:14.768134 10438 net.cpp:356] fc8 -> fc8
I0306 22:07:14.768146 10438 net.cpp:96] Setting up fc8
I0306 22:07:14.768461 10438 net.cpp:103] Top shape: 128 2 1 1 (256)
I0306 22:07:14.768477 10438 layer_factory.hpp:78] Creating layer loss
I0306 22:07:14.768491 10438 net.cpp:67] Creating Layer loss
I0306 22:07:14.768497 10438 net.cpp:394] loss <- fc8
I0306 22:07:14.768507 10438 net.cpp:394] loss <- label
I0306 22:07:14.768518 10438 net.cpp:356] loss -> loss
I0306 22:07:14.768532 10438 net.cpp:96] Setting up loss
I0306 22:07:14.768546 10438 net.cpp:103] Top shape: 1 1 1 1 (1)
I0306 22:07:14.768554 10438 net.cpp:109]     with loss weight 1
I0306 22:07:14.768590 10438 net.cpp:170] loss needs backward computation.
I0306 22:07:14.768599 10438 net.cpp:170] fc8 needs backward computation.
I0306 22:07:14.768604 10438 net.cpp:170] drop7 needs backward computation.
I0306 22:07:14.768611 10438 net.cpp:170] relu7 needs backward computation.
I0306 22:07:14.768617 10438 net.cpp:170] fc7 needs backward computation.
…
I0306 22:07:14.770020 10438 net.cpp:275] The NetState phase (1) differed from the phase (0) specified by a rule in layer data
I0306 22:07:14.770300 10438 net.cpp:39] Initializing net from parameters: 
name: "CaffeNet"
layers {
  top: "data"
  top: "label"
  name: "data"
  type: DATA
  data_param {
    source: "/media/lifelogging/HDD_2TB/Objects_Detection/data_split/objDetectCNN_val_lmdb"
    batch_size: 50
    backend: LMDB
  }
  include {
    phase: TEST
  }
  transform_param {
    mirror: false
    crop_size: 227
    mean_file: "/usr/local/caffe-dev/examples/objDetectCNN/objDetectCNN_mean.binaryproto"
  }
}
layers {
  bottom: "data"
  top: "conv1"
  name: "conv1"
  type: CONVOLUTION
  blobs_lr: 1
  blobs_lr: 2
  weight_decay: 1
  weight_decay: 0
  convolution_param {
    num_output: 96
    kernel_size: 11
    stride: 4
    weight_filler {
      type: "gaussian"
      std: 0.01
    }
    bias_filler {
      type: "constant"
      value: 0
    }
  }
}
layers {
  bottom: "conv1"
  top: "conv1"
  name: "relu1"
  type: RELU
}
layers {
  bottom: "conv1"
  top: "pool1"
  name: "pool1"
  type: POOLING
  pooling_param {
    pool: MAX
    kernel_size: 3
    stride: 2
  }
}
layers {
  bottom: "pool1"
  top: "norm1"
  name: "norm1"
  type: LRN
  lrn_param {
    local_size: 5
    alpha: 0.0001
    beta: 0.75
  }
}
layers {
  bottom: "norm1"
  top: "conv2"
  name: "conv2"
  type: CONVOLUTION
  blobs_lr: 1
  blobs_lr: 2
  weight_decay: 1
  weight_decay: 0
  convolution_param {
    num_output: 256
    pad: 2
    kernel_size: 5
    group: 2
    weight_filler {
      type: "gaussian"
      std: 0.01
    }
    bias_filler {
      type: "constant"
      value: 1
    }
  }
}
layers {
  bottom: "conv2"
  top: "conv2"
  name: "relu2"
  type: RELU
}
layers {
  bottom: "conv2"
  top: "pool2"
  name: "pool2"
  type: POOLING
  pooling_param {
    pool: MAX
    kernel_size: 3
    stride: 2
  }
}
layers {
  bottom: "pool2"
  top: "norm2"
  name: "norm2"
  type: LRN
  lrn_param {
    local_size: 5
    alpha: 0.0001
    beta: 0.75
  }
}
layers {
  bottom: "norm2"
  top: "conv3"
  name: "conv3"
  type: CONVOLUTION
  blobs_lr: 1
  blobs_lr: 2
  weight_decay: 1
  weight_decay: 0
  convolution_param {
    num_output: 384
    pad: 1
    kernel_size: 3
    weight_filler {
      type: "gaussian"
      std: 0.01
    }
    bias_filler {
      type: "constant"
      value: 0
    }
  }
}
layers {
  bottom: "conv3"
  top: "conv3"
  name: "relu3"
  type: RELU
}
layers {
  bottom: "conv3"
  top: "conv4"
  name: "conv4"
  type: CONVOLUTION
  blobs_lr: 1
  blobs_lr: 2
  weight_decay: 1
  weight_decay: 0
  convolution_param {
    num_output: 384
    pad: 1
    kernel_size: 3
    group: 2
    weight_filler {
      type: "gaussian"
      std: 0.01
    }
    bias_filler {
      type: "constant"
      value: 1
    }
  }
}
layers {
  bottom: "conv4"
  top: "conv4"
  name: "relu4"
  type: RELU
}
layers {
  bottom: "conv4"
  top: "conv5"
  name: "conv5"
  type: CONVOLUTION
  blobs_lr: 1
  blobs_lr: 2
  weight_decay: 1
  weight_decay: 0
  convolution_param {
    num_output: 256
    pad: 1
    kernel_size: 3
    group: 2
    weight_filler {
      type: "gaussian"
      std: 0.01
    }
    bias_filler {
      type: "constant"
      value: 1
    }
  }
}
layers {
  bottom: "conv5"
  top: "conv5"
  name: "relu5"
  type: RELU
}
layers {
  bottom: "conv5"
  top: "pool5"
  name: "pool5"
  type: POOLING
  pooling_param {
    pool: MAX
    kernel_size: 3
    stride: 2
  }
}
layers {
  bottom: "pool5"
  top: "fc6"
  name: "fc6"
  type: INNER_PRODUCT
  blobs_lr: 1
  blobs_lr: 2
  weight_decay: 1
  weight_decay: 0
  inner_product_param {
    num_output: 4096
    weight_filler {
      type: "gaussian"
      std: 0.005
    }
    bias_filler {
      type: "constant"
      value: 1
    }
  }
}
layers {
  bottom: "fc6"
  top: "fc6"
  name: "relu6"
  type: RELU
}
layers {
  bottom: "fc6"
  top: "fc6"
  name: "drop6"
  type: DROPOUT
  dropout_param {
    dropout_ratio: 0.5
  }
}
layers {
  bottom: "fc6"
  top: "fc7"
  name: "fc7"
  type: INNER_PRODUCT
  blobs_lr: 1
  blobs_lr: 2
  weight_decay: 1
  weight_decay: 0
  inner_product_param {
    num_output: 4096
    weight_filler {
      type: "gaussian"
      std: 0.005
    }
    bias_filler {
      type: "constant"
      value: 1
    }
  }
}
layers {
  bottom: "fc7"
  top: "fc7"
  name: "relu7"
  type: RELU
}
layers {
  bottom: "fc7"
  top: "fc7"
  name: "drop7"
  type: DROPOUT
  dropout_param {
    dropout_ratio: 0.5
  }
}
layers {
  bottom: "fc7"
  top: "fc8"
  name: "fc8"
  type: INNER_PRODUCT
  blobs_lr: 1
  blobs_lr: 2
  weight_decay: 1
  weight_decay: 0
  inner_product_param {
    num_output: 2
    weight_filler {
      type: "gaussian"
      std: 0.01
    }
    bias_filler {
      type: "constant"
      value: 0
    }
  }
}
layers {
  bottom: "fc8"
  bottom: "label"
  top: "accuracy"
  name: "accuracy"
  type: ACCURACY
  include {
    phase: TEST
  }
}
layers {
  bottom: "fc8"
  bottom: "label"
  top: "loss"
  name: "loss"
  type: SOFTMAX_LOSS
}
state {
  phase: TEST
}
I0306 22:07:14.770462 10438 layer_factory.hpp:78] Creating layer data
I0306 22:07:14.770476 10438 data_transformer.cpp:24] Loading mean file from/usr/local/caffe-dev/examples/objDetectCNN/objDetectCNN_mean.binaryproto
I0306 22:07:14.772558 10438 net.cpp:67] Creating Layer data
I0306 22:07:14.772579 10438 net.cpp:356] data -> data
I0306 22:07:14.772596 10438 net.cpp:356] data -> label
I0306 22:07:14.772608 10438 net.cpp:96] Setting up data
I0306 22:07:14.772617 10438 data_layer.cpp:32] Opening dataset /media/lifelogging/HDD_2TB/Objects_Detection/data_split/objDetectCNN_val_lmdb
I0306 22:07:14.792166 10438 data_layer.cpp:71] output data size: 50,3,227,227
I0306 22:07:14.801542 10438 net.cpp:103] Top shape: 50 3 227 227 (7729350)
I0306 22:07:14.801579 10438 net.cpp:103] Top shape: 50 1 1 1 (50)
I0306 22:07:14.801590 10438 layer_factory.hpp:78] Creating layer label_data_1_split
I0306 22:07:14.801610 10438 net.cpp:67] Creating Layer label_data_1_split
I0306 22:07:14.801619 10438 net.cpp:394] label_data_1_split <- label
I0306 22:07:14.801630 10438 net.cpp:356] label_data_1_split -> label_data_1_split_0
I0306 22:07:14.801646 10438 net.cpp:356] label_data_1_split -> label_data_1_split_1
I0306 22:07:14.801657 10438 net.cpp:96] Setting up label_data_1_split
I0306 22:07:14.801668 10438 net.cpp:103] Top shape: 50 1 1 1 (50)
I0306 22:07:14.801676 10438 net.cpp:103] Top shape: 50 1 1 1 (50)
I0306 22:07:14.801682 10438 layer_factory.hpp:78] Creating layer conv1
I0306 22:07:14.801697 10438 net.cpp:67] Creating Layer conv1
I0306 22:07:14.801703 10438 net.cpp:394] conv1 <- data
I0306 22:07:14.801713 10438 net.cpp:356] conv1 -> conv1
I0306 22:07:14.801725 10438 net.cpp:96] Setting up conv1
I0306 22:07:14.803098 10438 net.cpp:103] Top shape: 50 96 55 55 (14520000)
I0306 22:07:14.803130 10438 layer_factory.hpp:78] Creating layer relu1
I0306 22:07:14.803140 10438 net.cpp:67] Creating Layer relu1
I0306 22:07:14.803148 10438 net.cpp:394] relu1 <- conv1
I0306 22:07:14.803158 10438 net.cpp:345] relu1 -> conv1 (in-place)
I0306 22:07:14.803177 10438 net.cpp:96] Setting up relu1
I0306 22:07:14.803189 10438 net.cpp:103] Top shape: 50 96 55 55 (14520000)
I0306 22:07:14.803197 10438 layer_factory.hpp:78] Creating layer pool1
I0306 22:07:14.803208 10438 net.cpp:67] Creating Layer pool1
I0306 22:07:14.803215 10438 net.cpp:394] pool1 <- conv1
I0306 22:07:14.803225 10438 net.cpp:356] pool1 -> pool1
I0306 22:07:14.803235 10438 net.cpp:96] Setting up pool1
I0306 22:07:14.803248 10438 net.cpp:103] Top shape: 50 96 27 27 (3499200)
I0306 22:07:14.803256 10438 layer_factory.hpp:78] Creating layer norm1
I0306 22:07:14.803267 10438 net.cpp:67] Creating Layer norm1
I0306 22:07:14.803273 10438 net.cpp:394] norm1 <- pool1
I0306 22:07:14.803282 10438 net.cpp:356] norm1 -> norm1
I0306 22:07:14.803292 10438 net.cpp:96] Setting up norm1
I0306 22:07:14.803302 10438 net.cpp:103] Top shape: 50 96 27 27 (3499200)
I0306 22:07:14.803308 10438 layer_factory.hpp:78] Creating layer conv2
I0306 22:07:14.803318 10438 net.cpp:67] Creating Layer conv2
I0306 22:07:14.803325 10438 net.cpp:394] conv2 <- norm1
I0306 22:07:14.803335 10438 net.cpp:356] conv2 -> conv2
I0306 22:07:14.803345 10438 net.cpp:96] Setting up conv2
I0306 22:07:14.814596 10438 net.cpp:103] Top shape: 50 256 27 27 (9331200)
I0306 22:07:14.814640 10438 layer_factory.hpp:78] Creating layer relu2
I0306 22:07:14.814654 10438 net.cpp:67] Creating Layer relu2
I0306 22:07:14.814662 10438 net.cpp:394] relu2 <- conv2
I0306 22:07:14.814674 10438 net.cpp:345] relu2 -> conv2 (in-place)
I0306 22:07:14.814687 10438 net.cpp:96] Setting up relu2
I0306 22:07:14.814697 10438 net.cpp:103] Top shape: 50 256 27 27 (9331200)
I0306 22:07:14.814704 10438 layer_factory.hpp:78] Creating layer pool2
I0306 22:07:14.814717 10438 net.cpp:67] Creating Layer pool2
I0306 22:07:14.814723 10438 net.cpp:394] pool2 <- conv2
I0306 22:07:14.814736 10438 net.cpp:356] pool2 -> pool2
I0306 22:07:14.814749 10438 net.cpp:96] Setting up pool2
I0306 22:07:14.814764 10438 net.cpp:103] Top shape: 50 256 13 13 (2163200)
I0306 22:07:14.814774 10438 layer_factory.hpp:78] Creating layer norm2
I0306 22:07:14.814785 10438 net.cpp:67] Creating Layer norm2
I0306 22:07:14.814792 10438 net.cpp:394] norm2 <- pool2
I0306 22:07:14.814802 10438 net.cpp:356] norm2 -> norm2
I0306 22:07:14.814812 10438 net.cpp:96] Setting up norm2
I0306 22:07:14.814821 10438 net.cpp:103] Top shape: 50 256 13 13 (2163200)
I0306 22:07:14.814827 10438 layer_factory.hpp:78] Creating layer conv3
I0306 22:07:14.814839 10438 net.cpp:67] Creating Layer conv3
I0306 22:07:14.814846 10438 net.cpp:394] conv3 <- norm2
I0306 22:07:14.814858 10438 net.cpp:356] conv3 -> conv3
I0306 22:07:14.814869 10438 net.cpp:96] Setting up conv3
I0306 22:07:14.846637 10438 net.cpp:103] Top shape: 50 384 13 13 (3244800)
I0306 22:07:14.846678 10438 layer_factory.hpp:78] Creating layer relu3
I0306 22:07:14.846690 10438 net.cpp:67] Creating Layer relu3
I0306 22:07:14.846698 10438 net.cpp:394] relu3 <- conv3
I0306 22:07:14.846710 10438 net.cpp:345] relu3 -> conv3 (in-place)
I0306 22:07:14.846722 10438 net.cpp:96] Setting up relu3
I0306 22:07:14.846734 10438 net.cpp:103] Top shape: 50 384 13 13 (3244800)
I0306 22:07:14.846740 10438 layer_factory.hpp:78] Creating layer conv4
I0306 22:07:14.846755 10438 net.cpp:67] Creating Layer conv4
I0306 22:07:14.846761 10438 net.cpp:394] conv4 <- conv3
I0306 22:07:14.846773 10438 net.cpp:356] conv4 -> conv4
I0306 22:07:14.846784 10438 net.cpp:96] Setting up conv4
I0306 22:07:14.870640 10438 net.cpp:103] Top shape: 50 384 13 13 (3244800)
I0306 22:07:14.870676 10438 layer_factory.hpp:78] Creating layer relu4
I0306 22:07:14.870689 10438 net.cpp:67] Creating Layer relu4
I0306 22:07:14.870698 10438 net.cpp:394] relu4 <- conv4
I0306 22:07:14.870709 10438 net.cpp:345] relu4 -> conv4 (in-place)
I0306 22:07:14.870729 10438 net.cpp:96] Setting up relu4
I0306 22:07:14.870740 10438 net.cpp:103] Top shape: 50 384 13 13 (3244800)
I0306 22:07:14.870748 10438 layer_factory.hpp:78] Creating layer conv5
I0306 22:07:14.870761 10438 net.cpp:67] Creating Layer conv5
I0306 22:07:14.870779 10438 net.cpp:394] conv5 <- conv4
I0306 22:07:14.870789 10438 net.cpp:356] conv5 -> conv5
I0306 22:07:14.870800 10438 net.cpp:96] Setting up conv5
I0306 22:07:14.886957 10438 net.cpp:103] Top shape: 50 256 13 13 (2163200)
I0306 22:07:14.887001 10438 layer_factory.hpp:78] Creating layer relu5
I0306 22:07:14.887013 10438 net.cpp:67] Creating Layer relu5
I0306 22:07:14.887022 10438 net.cpp:394] relu5 <- conv5
I0306 22:07:14.887032 10438 net.cpp:345] relu5 -> conv5 (in-place)
I0306 22:07:14.887044 10438 net.cpp:96] Setting up relu5
I0306 22:07:14.887054 10438 net.cpp:103] Top shape: 50 256 13 13 (2163200)
I0306 22:07:14.887063 10438 layer_factory.hpp:78] Creating layer pool5
I0306 22:07:14.887075 10438 net.cpp:67] Creating Layer pool5
I0306 22:07:14.887083 10438 net.cpp:394] pool5 <- conv5
I0306 22:07:14.887094 10438 net.cpp:356] pool5 -> pool5
I0306 22:07:14.887105 10438 net.cpp:96] Setting up pool5
I0306 22:07:14.887118 10438 net.cpp:103] Top shape: 50 256 6 6 (460800)
I0306 22:07:14.887126 10438 layer_factory.hpp:78] Creating layer fc6
I0306 22:07:14.887137 10438 net.cpp:67] Creating Layer fc6
I0306 22:07:14.887145 10438 net.cpp:394] fc6 <- pool5
I0306 22:07:14.887156 10438 net.cpp:356] fc6 -> fc6
I0306 22:07:14.887167 10438 net.cpp:96] Setting up fc6
I0306 22:07:16.247856 10438 net.cpp:103] Top shape: 50 4096 1 1 (204800)
I0306 22:07:16.247898 10438 layer_factory.hpp:78] Creating layer relu6
I0306 22:07:16.247911 10438 net.cpp:67] Creating Layer relu6
I0306 22:07:16.247920 10438 net.cpp:394] relu6 <- fc6
I0306 22:07:16.247933 10438 net.cpp:345] relu6 -> fc6 (in-place)
I0306 22:07:16.247946 10438 net.cpp:96] Setting up relu6
I0306 22:07:16.247964 10438 net.cpp:103] Top shape: 50 4096 1 1 (204800)
I0306 22:07:16.247972 10438 layer_factory.hpp:78] Creating layer drop6
I0306 22:07:16.247982 10438 net.cpp:67] Creating Layer drop6
I0306 22:07:16.247989 10438 net.cpp:394] drop6 <- fc6
I0306 22:07:16.248000 10438 net.cpp:345] drop6 -> fc6 (in-place)
I0306 22:07:16.248010 10438 net.cpp:96] Setting up drop6
I0306 22:07:16.248018 10438 net.cpp:103] Top shape: 50 4096 1 1 (204800)
I0306 22:07:16.248025 10438 layer_factory.hpp:78] Creating layer fc7
I0306 22:07:16.248036 10438 net.cpp:67] Creating Layer fc7
I0306 22:07:16.248044 10438 net.cpp:394] fc7 <- fc6
I0306 22:07:16.248054 10438 net.cpp:356] fc7 -> fc7
I0306 22:07:16.248065 10438 net.cpp:96] Setting up fc7
I0306 22:07:16.872385 10438 net.cpp:103] Top shape: 50 4096 1 1 (204800)
I0306 22:07:16.872423 10438 layer_factory.hpp:78] Creating layer relu7
I0306 22:07:16.872437 10438 net.cpp:67] Creating Layer relu7
I0306 22:07:16.872445 10438 net.cpp:394] relu7 <- fc7
I0306 22:07:16.872457 10438 net.cpp:345] relu7 -> fc7 (in-place)
I0306 22:07:16.872469 10438 net.cpp:96] Setting up relu7
I0306 22:07:16.872488 10438 net.cpp:103] Top shape: 50 4096 1 1 (204800)
I0306 22:07:16.872496 10438 layer_factory.hpp:78] Creating layer drop7
I0306 22:07:16.872509 10438 net.cpp:67] Creating Layer drop7
I0306 22:07:16.872515 10438 net.cpp:394] drop7 <- fc7
I0306 22:07:16.872525 10438 net.cpp:345] drop7 -> fc7 (in-place)
I0306 22:07:16.872535 10438 net.cpp:96] Setting up drop7
I0306 22:07:16.872542 10438 net.cpp:103] Top shape: 50 4096 1 1 (204800)
I0306 22:07:16.872550 10438 layer_factory.hpp:78] Creating layer fc8
I0306 22:07:16.872561 10438 net.cpp:67] Creating Layer fc8
I0306 22:07:16.872568 10438 net.cpp:394] fc8 <- fc7
I0306 22:07:16.872581 10438 net.cpp:356] fc8 -> fc8
I0306 22:07:16.872596 10438 net.cpp:96] Setting up fc8
I0306 22:07:16.872905 10438 net.cpp:103] Top shape: 50 2 1 1 (100)
I0306 22:07:16.872920 10438 layer_factory.hpp:78] Creating layer fc8_fc8_0_split
I0306 22:07:16.872930 10438 net.cpp:67] Creating Layer fc8_fc8_0_split
I0306 22:07:16.872936 10438 net.cpp:394] fc8_fc8_0_split <- fc8
I0306 22:07:16.872956 10438 net.cpp:356] fc8_fc8_0_split -> fc8_fc8_0_split_0
I0306 22:07:16.872968 10438 net.cpp:356] fc8_fc8_0_split -> fc8_fc8_0_split_1
I0306 22:07:16.872978 10438 net.cpp:96] Setting up fc8_fc8_0_split
I0306 22:07:16.872987 10438 net.cpp:103] Top shape: 50 2 1 1 (100)
I0306 22:07:16.873004 10438 net.cpp:103] Top shape: 50 2 1 1 (100)
I0306 22:07:16.873011 10438 layer_factory.hpp:78] Creating layer accuracy
I0306 22:07:16.873024 10438 net.cpp:67] Creating Layer accuracy
I0306 22:07:16.873033 10438 net.cpp:394] accuracy <- fc8_fc8_0_split_0
I0306 22:07:16.873040 10438 net.cpp:394] accuracy <- label_data_1_split_0
I0306 22:07:16.873050 10438 net.cpp:356] accuracy -> accuracy
I0306 22:07:16.873061 10438 net.cpp:96] Setting up accuracy
I0306 22:07:16.873069 10438 net.cpp:103] Top shape: 1 1 1 1 (1)
I0306 22:07:16.873076 10438 layer_factory.hpp:78] Creating layer loss
I0306 22:07:16.873087 10438 net.cpp:67] Creating Layer loss
I0306 22:07:16.873095 10438 net.cpp:394] loss <- fc8_fc8_0_split_1
I0306 22:07:16.873103 10438 net.cpp:394] loss <- label_data_1_split_1
I0306 22:07:16.873111 10438 net.cpp:356] loss -> loss
I0306 22:07:16.873121 10438 net.cpp:96] Setting up loss
I0306 22:07:16.873133 10438 net.cpp:103] Top shape: 1 1 1 1 (1)
I0306 22:07:16.873141 10438 net.cpp:109]     with loss weight 1
I0306 22:07:16.873152 10438 net.cpp:170] loss needs backward computation.
I0306 22:07:16.873160 10438 net.cpp:172] accuracy does not need backward computation.
I0306 22:07:16.873167 10438 net.cpp:170] fc8_fc8_0_split needs backward computation.
I0306 22:07:16.873173 10438 net.cpp:170] fc8 needs backward computation.
I0306 22:07:16.873180 10438 net.cpp:170] drop7 needs backward computation.
…
