…
I0304 07:57:20.238116 22150 net.cpp:275] The NetState phase (0) differed from the phase (1) specified by a rule in layer accuracy
I0304 07:57:20.238266 22150 net.cpp:39] Initializing net from parameters: 
name: "CaffeNet"
layers {
  top: "data"
  top: "label"
  name: "data"
  type: DATA
  data_param {
    source: "/media/lifelogging/HDD_2TB/Objects_Detection/data_split/objDetectCNN_train_lmdb"
    batch_size: 128
    backend: LMDB
  }
  include {
    phase: TRAIN
  }
  transform_param {
    mirror: true
    crop_size: 227
    mean_file: "/usr/local/caffe-dev/examples/objDetectCNN/objDetectCNN_mean.binaryproto"
  }
}
layers {
  bottom: "data"
  top: "conv1"
  name: "conv1"
  type: CONVOLUTION
  blobs_lr: 1
  blobs_lr: 2
  weight_decay: 1
  weight_decay: 0
  convolution_param {
    num_output: 96
    kernel_size: 11
    stride: 4
    weight_filler {
      type: "gaussian"
      std: 0.01
    }
    bias_filler {
      type: "constant"
      value: 0
    }
  }
}
layers {
  bottom: "conv1"
  top: "conv1"
  name: "relu1"
  type: RELU
}
layers {
  bottom: "conv1"
  top: "pool1"
  name: "pool1"
  type: POOLING
  pooling_param {
    pool: MAX
    kernel_size: 3
    stride: 2
  }
}
layers {
  bottom: "pool1"
  top: "norm1"
  name: "norm1"
  type: LRN
  lrn_param {
    local_size: 5
    alpha: 0.0001
    beta: 0.75
  }
}
layers {
  bottom: "norm1"
  top: "conv2"
  name: "conv2"
  type: CONVOLUTION
  blobs_lr: 1
  blobs_lr: 2
  weight_decay: 1
  weight_decay: 0
  convolution_param {
    num_output: 256
    pad: 2
    kernel_size: 5
    group: 2
    weight_filler {
      type: "gaussian"
      std: 0.01
    }
    bias_filler {
      type: "constant"
      value: 1
    }
  }
}
layers {
  bottom: "conv2"
  top: "conv2"
  name: "relu2"
  type: RELU
}
layers {
  bottom: "conv2"
  top: "pool2"
  name: "pool2"
  type: POOLING
  pooling_param {
    pool: MAX
    kernel_size: 3
    stride: 2
  }
}
layers {
  bottom: "pool2"
  top: "norm2"
  name: "norm2"
  type: LRN
  lrn_param {
    local_size: 5
    alpha: 0.0001
    beta: 0.75
  }
}
layers {
  bottom: "norm2"
  top: "conv3"
  name: "conv3"
  type: CONVOLUTION
  blobs_lr: 1
  blobs_lr: 2
  weight_decay: 1
  weight_decay: 0
  convolution_param {
    num_output: 384
    pad: 1
    kernel_size: 3
    weight_filler {
      type: "gaussian"
      std: 0.01
    }
    bias_filler {
      type: "constant"
      value: 0
    }
  }
}
layers {
  bottom: "conv3"
  top: "conv3"
  name: "relu3"
  type: RELU
}
layers {
  bottom: "conv3"
  top: "conv4"
  name: "conv4"
  type: CONVOLUTION
  blobs_lr: 1
  blobs_lr: 2
  weight_decay: 1
  weight_decay: 0
  convolution_param {
    num_output: 384
    pad: 1
    kernel_size: 3
    group: 2
    weight_filler {
      type: "gaussian"
      std: 0.01
    }
    bias_filler {
      type: "constant"
      value: 1
    }
  }
}
layers {
  bottom: "conv4"
  top: "conv4"
  name: "relu4"
  type: RELU
}
layers {
  bottom: "conv4"
  top: "conv5"
  name: "conv5"
  type: CONVOLUTION
  blobs_lr: 1
  blobs_lr: 2
  weight_decay: 1
  weight_decay: 0
  convolution_param {
    num_output: 256
    pad: 1
    kernel_size: 3
    group: 2
    weight_filler {
      type: "gaussian"
      std: 0.01
    }
    bias_filler {
      type: "constant"
      value: 1
    }
  }
}
layers {
  bottom: "conv5"
  top: "conv5"
  name: "relu5"
  type: RELU
}
layers {
  bottom: "conv5"
  top: "pool5"
  name: "pool5"
  type: POOLING
  pooling_param {
    pool: MAX
    kernel_size: 3
    stride: 2
  }
}
layers {
  bottom: "pool5"
  top: "fc6"
  name: "fc6"
  type: INNER_PRODUCT
  blobs_lr: 1
  blobs_lr: 2
  weight_decay: 1
  weight_decay: 0
  inner_product_param {
    num_output: 4096
    weight_filler {
      type: "gaussian"
      std: 0.005
    }
    bias_filler {
      type: "constant"
      value: 1
    }
  }
}
layers {
  bottom: "fc6"
  top: "fc6"
  name: "relu6"
  type: RELU
}
layers {
  bottom: "fc6"
  top: "fc6"
  name: "drop6"
  type: DROPOUT
  dropout_param {
    dropout_ratio: 0.5
  }
}
layers {
  bottom: "fc6"
  top: "fc7"
  name: "fc7"
  type: INNER_PRODUCT
  blobs_lr: 1
  blobs_lr: 2
  weight_decay: 1
  weight_decay: 0
  inner_product_param {
    num_output: 4096
    weight_filler {
      type: "gaussian"
      std: 0.005
    }
    bias_filler {
      type: "constant"
      value: 1
    }
  }
}
layers {
  bottom: "fc7"
  top: "fc7"
  name: "relu7"
  type: RELU
}
layers {
  bottom: "fc7"
  top: "fc7"
  name: "drop7"
  type: DROPOUT
  dropout_param {
    dropout_ratio: 0.5
  }
}
layers {
  bottom: "fc7"
  top: "fc8"
  name: "fc8"
  type: INNER_PRODUCT
  blobs_lr: 1
  blobs_lr: 2
  weight_decay: 1
  weight_decay: 0
  inner_product_param {
    num_output: 2
    weight_filler {
      type: "gaussian"
      std: 0.01
    }
    bias_filler {
      type: "constant"
      value: 0
    }
  }
}
layers {
  bottom: "fc8"
  bottom: "label"
  top: "loss"
  name: "loss"
  type: SOFTMAX_LOSS
}
state {
  phase: TRAIN
}
I0304 07:57:20.238373 22150 layer_factory.hpp:78] Creating layer data
I0304 07:57:20.239331 22150 data_transformer.cpp:24] Loading mean file from/usr/local/caffe-dev/examples/objDetectCNN/objDetectCNN_mean.binaryproto
I0304 07:57:20.241247 22150 net.cpp:67] Creating Layer data
I0304 07:57:20.241286 22150 net.cpp:356] data -> data
I0304 07:57:20.241330 22150 net.cpp:356] data -> label
I0304 07:57:20.241360 22150 net.cpp:96] Setting up data
I0304 07:57:20.241389 22150 data_layer.cpp:32] Opening dataset /media/lifelogging/HDD_2TB/Objects_Detection/data_split/objDetectCNN_train_lmdb
I0304 07:57:20.257879 22150 data_layer.cpp:71] output data size: 128,3,227,227
I0304 07:57:20.310817 22150 net.cpp:103] Top shape: 128 3 227 227 (19787136)
I0304 07:57:20.310854 22150 net.cpp:103] Top shape: 128 1 1 1 (128)
I0304 07:57:20.310861 22150 layer_factory.hpp:78] Creating layer conv1
I0304 07:57:20.310878 22150 net.cpp:67] Creating Layer conv1
I0304 07:57:20.310885 22150 net.cpp:394] conv1 <- data
I0304 07:57:20.310899 22150 net.cpp:356] conv1 -> conv1
I0304 07:57:20.310912 22150 net.cpp:96] Setting up conv1
I0304 07:57:20.339481 22150 net.cpp:103] Top shape: 128 96 55 55 (37171200)
I0304 07:57:20.339532 22150 layer_factory.hpp:78] Creating layer relu1
I0304 07:57:20.339546 22150 net.cpp:67] Creating Layer relu1
I0304 07:57:20.339552 22150 net.cpp:394] relu1 <- conv1
I0304 07:57:20.339560 22150 net.cpp:345] relu1 -> conv1 (in-place)
I0304 07:57:20.339576 22150 net.cpp:96] Setting up relu1
I0304 07:57:20.340128 22150 net.cpp:103] Top shape: 128 96 55 55 (37171200)
I0304 07:57:20.340142 22150 layer_factory.hpp:78] Creating layer pool1
I0304 07:57:20.340154 22150 net.cpp:67] Creating Layer pool1
I0304 07:57:20.340160 22150 net.cpp:394] pool1 <- conv1
I0304 07:57:20.340172 22150 net.cpp:356] pool1 -> pool1
I0304 07:57:20.340183 22150 net.cpp:96] Setting up pool1
I0304 07:57:20.340204 22150 net.cpp:103] Top shape: 128 96 27 27 (8957952)
I0304 07:57:20.340211 22150 layer_factory.hpp:78] Creating layer norm1
I0304 07:57:20.340225 22150 net.cpp:67] Creating Layer norm1
I0304 07:57:20.340232 22150 net.cpp:394] norm1 <- pool1
I0304 07:57:20.340240 22150 net.cpp:356] norm1 -> norm1
I0304 07:57:20.340250 22150 net.cpp:96] Setting up norm1
I0304 07:57:20.340384 22150 net.cpp:103] Top shape: 128 96 27 27 (8957952)
I0304 07:57:20.340396 22150 layer_factory.hpp:78] Creating layer conv2
I0304 07:57:20.340412 22150 net.cpp:67] Creating Layer conv2
I0304 07:57:20.340419 22150 net.cpp:394] conv2 <- norm1
I0304 07:57:20.340451 22150 net.cpp:356] conv2 -> conv2
I0304 07:57:20.340459 22150 net.cpp:96] Setting up conv2
I0304 07:57:20.348965 22150 net.cpp:103] Top shape: 128 256 27 27 (23887872)
I0304 07:57:20.348997 22150 layer_factory.hpp:78] Creating layer relu2
I0304 07:57:20.349006 22150 net.cpp:67] Creating Layer relu2
I0304 07:57:20.349014 22150 net.cpp:394] relu2 <- conv2
I0304 07:57:20.349021 22150 net.cpp:345] relu2 -> conv2 (in-place)
I0304 07:57:20.349030 22150 net.cpp:96] Setting up relu2
I0304 07:57:20.349036 22150 net.cpp:103] Top shape: 128 256 27 27 (23887872)
I0304 07:57:20.349040 22150 layer_factory.hpp:78] Creating layer pool2
I0304 07:57:20.349047 22150 net.cpp:67] Creating Layer pool2
I0304 07:57:20.349052 22150 net.cpp:394] pool2 <- conv2
I0304 07:57:20.349058 22150 net.cpp:356] pool2 -> pool2
I0304 07:57:20.349064 22150 net.cpp:96] Setting up pool2
I0304 07:57:20.349073 22150 net.cpp:103] Top shape: 128 256 13 13 (5537792)
I0304 07:57:20.349077 22150 layer_factory.hpp:78] Creating layer norm2
I0304 07:57:20.349087 22150 net.cpp:67] Creating Layer norm2
I0304 07:57:20.349092 22150 net.cpp:394] norm2 <- pool2
I0304 07:57:20.349099 22150 net.cpp:356] norm2 -> norm2
I0304 07:57:20.349107 22150 net.cpp:96] Setting up norm2
I0304 07:57:20.349112 22150 net.cpp:103] Top shape: 128 256 13 13 (5537792)
I0304 07:57:20.349117 22150 layer_factory.hpp:78] Creating layer conv3
I0304 07:57:20.349123 22150 net.cpp:67] Creating Layer conv3
I0304 07:57:20.349128 22150 net.cpp:394] conv3 <- norm2
I0304 07:57:20.349135 22150 net.cpp:356] conv3 -> conv3
I0304 07:57:20.349143 22150 net.cpp:96] Setting up conv3
I0304 07:57:20.372968 22150 net.cpp:103] Top shape: 128 384 13 13 (8306688)
I0304 07:57:20.373008 22150 layer_factory.hpp:78] Creating layer relu3
I0304 07:57:20.373018 22150 net.cpp:67] Creating Layer relu3
I0304 07:57:20.373023 22150 net.cpp:394] relu3 <- conv3
I0304 07:57:20.373031 22150 net.cpp:345] relu3 -> conv3 (in-place)
I0304 07:57:20.373039 22150 net.cpp:96] Setting up relu3
I0304 07:57:20.373046 22150 net.cpp:103] Top shape: 128 384 13 13 (8306688)
I0304 07:57:20.373051 22150 layer_factory.hpp:78] Creating layer conv4
I0304 07:57:20.373061 22150 net.cpp:67] Creating Layer conv4
I0304 07:57:20.373065 22150 net.cpp:394] conv4 <- conv3
I0304 07:57:20.373072 22150 net.cpp:356] conv4 -> conv4
I0304 07:57:20.373081 22150 net.cpp:96] Setting up conv4
I0304 07:57:20.391237 22150 net.cpp:103] Top shape: 128 384 13 13 (8306688)
I0304 07:57:20.391274 22150 layer_factory.hpp:78] Creating layer relu4
I0304 07:57:20.391286 22150 net.cpp:67] Creating Layer relu4
I0304 07:57:20.391293 22150 net.cpp:394] relu4 <- conv4
I0304 07:57:20.391301 22150 net.cpp:345] relu4 -> conv4 (in-place)
I0304 07:57:20.391310 22150 net.cpp:96] Setting up relu4
I0304 07:57:20.391345 22150 net.cpp:103] Top shape: 128 384 13 13 (8306688)
I0304 07:57:20.391360 22150 layer_factory.hpp:78] Creating layer conv5
I0304 07:57:20.391381 22150 net.cpp:67] Creating Layer conv5
I0304 07:57:20.391396 22150 net.cpp:394] conv5 <- conv4
I0304 07:57:20.391424 22150 net.cpp:356] conv5 -> conv5
I0304 07:57:20.391449 22150 net.cpp:96] Setting up conv5
I0304 07:57:20.407335 22150 net.cpp:103] Top shape: 128 256 13 13 (5537792)
I0304 07:57:20.407371 22150 layer_factory.hpp:78] Creating layer relu5
I0304 07:57:20.407382 22150 net.cpp:67] Creating Layer relu5
I0304 07:57:20.407388 22150 net.cpp:394] relu5 <- conv5
I0304 07:57:20.407397 22150 net.cpp:345] relu5 -> conv5 (in-place)
I0304 07:57:20.407405 22150 net.cpp:96] Setting up relu5
I0304 07:57:20.407413 22150 net.cpp:103] Top shape: 128 256 13 13 (5537792)
I0304 07:57:20.407418 22150 layer_factory.hpp:78] Creating layer pool5
I0304 07:57:20.407424 22150 net.cpp:67] Creating Layer pool5
I0304 07:57:20.407429 22150 net.cpp:394] pool5 <- conv5
I0304 07:57:20.407444 22150 net.cpp:356] pool5 -> pool5
I0304 07:57:20.407452 22150 net.cpp:96] Setting up pool5
I0304 07:57:20.407461 22150 net.cpp:103] Top shape: 128 256 6 6 (1179648)
I0304 07:57:20.407466 22150 layer_factory.hpp:78] Creating layer fc6
I0304 07:57:20.407480 22150 net.cpp:67] Creating Layer fc6
I0304 07:57:20.407493 22150 net.cpp:394] fc6 <- pool5
I0304 07:57:20.407501 22150 net.cpp:356] fc6 -> fc6
I0304 07:57:20.407510 22150 net.cpp:96] Setting up fc6
I0304 07:57:21.400511 22150 net.cpp:103] Top shape: 128 4096 1 1 (524288)
I0304 07:57:21.400553 22150 layer_factory.hpp:78] Creating layer relu6
I0304 07:57:21.400563 22150 net.cpp:67] Creating Layer relu6
I0304 07:57:21.400568 22150 net.cpp:394] relu6 <- fc6
I0304 07:57:21.400578 22150 net.cpp:345] relu6 -> fc6 (in-place)
I0304 07:57:21.400586 22150 net.cpp:96] Setting up relu6
I0304 07:57:21.400601 22150 net.cpp:103] Top shape: 128 4096 1 1 (524288)
I0304 07:57:21.400606 22150 layer_factory.hpp:78] Creating layer drop6
I0304 07:57:21.400615 22150 net.cpp:67] Creating Layer drop6
I0304 07:57:21.400620 22150 net.cpp:394] drop6 <- fc6
I0304 07:57:21.400627 22150 net.cpp:345] drop6 -> fc6 (in-place)
I0304 07:57:21.400634 22150 net.cpp:96] Setting up drop6
I0304 07:57:21.400640 22150 net.cpp:103] Top shape: 128 4096 1 1 (524288)
I0304 07:57:21.400645 22150 layer_factory.hpp:78] Creating layer fc7
I0304 07:57:21.400652 22150 net.cpp:67] Creating Layer fc7
I0304 07:57:21.400656 22150 net.cpp:394] fc7 <- fc6
I0304 07:57:21.400662 22150 net.cpp:356] fc7 -> fc7
I0304 07:57:21.400670 22150 net.cpp:96] Setting up fc7
I0304 07:57:21.823628 22150 net.cpp:103] Top shape: 128 4096 1 1 (524288)
I0304 07:57:21.823668 22150 layer_factory.hpp:78] Creating layer relu7
I0304 07:57:21.823678 22150 net.cpp:67] Creating Layer relu7
I0304 07:57:21.823683 22150 net.cpp:394] relu7 <- fc7
I0304 07:57:21.823693 22150 net.cpp:345] relu7 -> fc7 (in-place)
I0304 07:57:21.823701 22150 net.cpp:96] Setting up relu7
I0304 07:57:21.823717 22150 net.cpp:103] Top shape: 128 4096 1 1 (524288)
I0304 07:57:21.823722 22150 layer_factory.hpp:78] Creating layer drop7
I0304 07:57:21.823729 22150 net.cpp:67] Creating Layer drop7
I0304 07:57:21.823732 22150 net.cpp:394] drop7 <- fc7
I0304 07:57:21.823739 22150 net.cpp:345] drop7 -> fc7 (in-place)
I0304 07:57:21.823745 22150 net.cpp:96] Setting up drop7
I0304 07:57:21.823750 22150 net.cpp:103] Top shape: 128 4096 1 1 (524288)
I0304 07:57:21.823753 22150 layer_factory.hpp:78] Creating layer fc8
I0304 07:57:21.823760 22150 net.cpp:67] Creating Layer fc8
I0304 07:57:21.823765 22150 net.cpp:394] fc8 <- fc7
I0304 07:57:21.823772 22150 net.cpp:356] fc8 -> fc8
I0304 07:57:21.823779 22150 net.cpp:96] Setting up fc8
I0304 07:57:21.823998 22150 net.cpp:103] Top shape: 128 2 1 1 (256)
I0304 07:57:21.824007 22150 layer_factory.hpp:78] Creating layer loss
I0304 07:57:21.824015 22150 net.cpp:67] Creating Layer loss
I0304 07:57:21.824020 22150 net.cpp:394] loss <- fc8
I0304 07:57:21.824025 22150 net.cpp:394] loss <- label
I0304 07:57:21.824033 22150 net.cpp:356] loss -> loss
I0304 07:57:21.824041 22150 net.cpp:96] Setting up loss
I0304 07:57:21.824053 22150 net.cpp:103] Top shape: 1 1 1 1 (1)
I0304 07:57:21.824056 22150 net.cpp:109]     with loss weight 1
I0304 07:57:21.824084 22150 net.cpp:170] loss needs backward computation.
I0304 07:57:21.824090 22150 net.cpp:170] fc8 needs backward computation.
I0304 07:57:21.824093 22150 net.cpp:170] drop7 needs backward computation.
I0304 07:57:21.824097 22150 net.cpp:170] relu7 needs backward computation.
I0304 07:57:21.824101 22150 net.cpp:170] fc7 needs backward computation.
…
I0304 07:57:21.824867 22150 net.cpp:275] The NetState phase (1) differed from the phase (0) specified by a rule in layer data
I0304 07:57:21.825027 22150 net.cpp:39] Initializing net from parameters: 
name: "CaffeNet"
layers {
  top: "data"
  top: "label"
  name: "data"
  type: DATA
  data_param {
    source: "/media/lifelogging/HDD_2TB/Objects_Detection/data_split/objDetectCNN_val_lmdb"
    batch_size: 50
    backend: LMDB
  }
  include {
    phase: TEST
  }
  transform_param {
    mirror: false
    crop_size: 227
    mean_file: "/usr/local/caffe-dev/examples/objDetectCNN/objDetectCNN_mean.binaryproto"
  }
}
layers {
  bottom: "data"
  top: "conv1"
  name: "conv1"
  type: CONVOLUTION
  blobs_lr: 1
  blobs_lr: 2
  weight_decay: 1
  weight_decay: 0
  convolution_param {
    num_output: 96
    kernel_size: 11
    stride: 4
    weight_filler {
      type: "gaussian"
      std: 0.01
    }
    bias_filler {
      type: "constant"
      value: 0
    }
  }
}
layers {
  bottom: "conv1"
  top: "conv1"
  name: "relu1"
  type: RELU
}
layers {
  bottom: "conv1"
  top: "pool1"
  name: "pool1"
  type: POOLING
  pooling_param {
    pool: MAX
    kernel_size: 3
    stride: 2
  }
}
layers {
  bottom: "pool1"
  top: "norm1"
  name: "norm1"
  type: LRN
  lrn_param {
    local_size: 5
    alpha: 0.0001
    beta: 0.75
  }
}
layers {
  bottom: "norm1"
  top: "conv2"
  name: "conv2"
  type: CONVOLUTION
  blobs_lr: 1
  blobs_lr: 2
  weight_decay: 1
  weight_decay: 0
  convolution_param {
    num_output: 256
    pad: 2
    kernel_size: 5
    group: 2
    weight_filler {
      type: "gaussian"
      std: 0.01
    }
    bias_filler {
      type: "constant"
      value: 1
    }
  }
}
layers {
  bottom: "conv2"
  top: "conv2"
  name: "relu2"
  type: RELU
}
layers {
  bottom: "conv2"
  top: "pool2"
  name: "pool2"
  type: POOLING
  pooling_param {
    pool: MAX
    kernel_size: 3
    stride: 2
  }
}
layers {
  bottom: "pool2"
  top: "norm2"
  name: "norm2"
  type: LRN
  lrn_param {
    local_size: 5
    alpha: 0.0001
    beta: 0.75
  }
}
layers {
  bottom: "norm2"
  top: "conv3"
  name: "conv3"
  type: CONVOLUTION
  blobs_lr: 1
  blobs_lr: 2
  weight_decay: 1
  weight_decay: 0
  convolution_param {
    num_output: 384
    pad: 1
    kernel_size: 3
    weight_filler {
      type: "gaussian"
      std: 0.01
    }
    bias_filler {
      type: "constant"
      value: 0
    }
  }
}
layers {
  bottom: "conv3"
  top: "conv3"
  name: "relu3"
  type: RELU
}
layers {
  bottom: "conv3"
  top: "conv4"
  name: "conv4"
  type: CONVOLUTION
  blobs_lr: 1
  blobs_lr: 2
  weight_decay: 1
  weight_decay: 0
  convolution_param {
    num_output: 384
    pad: 1
    kernel_size: 3
    group: 2
    weight_filler {
      type: "gaussian"
      std: 0.01
    }
    bias_filler {
      type: "constant"
      value: 1
    }
  }
}
layers {
  bottom: "conv4"
  top: "conv4"
  name: "relu4"
  type: RELU
}
layers {
  bottom: "conv4"
  top: "conv5"
  name: "conv5"
  type: CONVOLUTION
  blobs_lr: 1
  blobs_lr: 2
  weight_decay: 1
  weight_decay: 0
  convolution_param {
    num_output: 256
    pad: 1
    kernel_size: 3
    group: 2
    weight_filler {
      type: "gaussian"
      std: 0.01
    }
    bias_filler {
      type: "constant"
      value: 1
    }
  }
}
layers {
  bottom: "conv5"
  top: "conv5"
  name: "relu5"
  type: RELU
}
layers {
  bottom: "conv5"
  top: "pool5"
  name: "pool5"
  type: POOLING
  pooling_param {
    pool: MAX
    kernel_size: 3
    stride: 2
  }
}
layers {
  bottom: "pool5"
  top: "fc6"
  name: "fc6"
  type: INNER_PRODUCT
  blobs_lr: 1
  blobs_lr: 2
  weight_decay: 1
  weight_decay: 0
  inner_product_param {
    num_output: 4096
    weight_filler {
      type: "gaussian"
      std: 0.005
    }
    bias_filler {
      type: "constant"
      value: 1
    }
  }
}
layers {
  bottom: "fc6"
  top: "fc6"
  name: "relu6"
  type: RELU
}
layers {
  bottom: "fc6"
  top: "fc6"
  name: "drop6"
  type: DROPOUT
  dropout_param {
    dropout_ratio: 0.5
  }
}
layers {
  bottom: "fc6"
  top: "fc7"
  name: "fc7"
  type: INNER_PRODUCT
  blobs_lr: 1
  blobs_lr: 2
  weight_decay: 1
  weight_decay: 0
  inner_product_param {
    num_output: 4096
    weight_filler {
      type: "gaussian"
      std: 0.005
    }
    bias_filler {
      type: "constant"
      value: 1
    }
  }
}
layers {
  bottom: "fc7"
  top: "fc7"
  name: "relu7"
  type: RELU
}
layers {
  bottom: "fc7"
  top: "fc7"
  name: "drop7"
  type: DROPOUT
  dropout_param {
    dropout_ratio: 0.5
  }
}
layers {
  bottom: "fc7"
  top: "fc8"
  name: "fc8"
  type: INNER_PRODUCT
  blobs_lr: 1
  blobs_lr: 2
  weight_decay: 1
  weight_decay: 0
  inner_product_param {
    num_output: 2
    weight_filler {
      type: "gaussian"
      std: 0.01
    }
    bias_filler {
      type: "constant"
      value: 0
    }
  }
}
layers {
  bottom: "fc8"
  bottom: "label"
  top: "accuracy"
  name: "accuracy"
  type: ACCURACY
  include {
    phase: TEST
  }
}
layers {
  bottom: "fc8"
  bottom: "label"
  top: "loss"
  name: "loss"
  type: SOFTMAX_LOSS
}
state {
  phase: TEST
}
I0304 07:57:21.825146 22150 layer_factory.hpp:78] Creating layer data
I0304 07:57:21.825156 22150 data_transformer.cpp:24] Loading mean file from/usr/local/caffe-dev/examples/objDetectCNN/objDetectCNN_mean.binaryproto
I0304 07:57:21.826463 22150 net.cpp:67] Creating Layer data
I0304 07:57:21.826472 22150 net.cpp:356] data -> data
I0304 07:57:21.826481 22150 net.cpp:356] data -> label
I0304 07:57:21.826488 22150 net.cpp:96] Setting up data
I0304 07:57:21.826493 22150 data_layer.cpp:32] Opening dataset /media/lifelogging/HDD_2TB/Objects_Detection/data_split/objDetectCNN_val_lmdb
I0304 07:57:21.843509 22150 data_layer.cpp:71] output data size: 50,3,227,227
I0304 07:57:21.870988 22150 net.cpp:103] Top shape: 50 3 227 227 (7729350)
I0304 07:57:21.871026 22150 net.cpp:103] Top shape: 50 1 1 1 (50)
I0304 07:57:21.871034 22150 layer_factory.hpp:78] Creating layer label_data_1_split
I0304 07:57:21.871053 22150 net.cpp:67] Creating Layer label_data_1_split
I0304 07:57:21.871059 22150 net.cpp:394] label_data_1_split <- label
I0304 07:57:21.871068 22150 net.cpp:356] label_data_1_split -> label_data_1_split_0
I0304 07:57:21.871083 22150 net.cpp:356] label_data_1_split -> label_data_1_split_1
I0304 07:57:21.871090 22150 net.cpp:96] Setting up label_data_1_split
I0304 07:57:21.871098 22150 net.cpp:103] Top shape: 50 1 1 1 (50)
I0304 07:57:21.871103 22150 net.cpp:103] Top shape: 50 1 1 1 (50)
I0304 07:57:21.871107 22150 layer_factory.hpp:78] Creating layer conv1
I0304 07:57:21.871115 22150 net.cpp:67] Creating Layer conv1
I0304 07:57:21.871120 22150 net.cpp:394] conv1 <- data
I0304 07:57:21.871126 22150 net.cpp:356] conv1 -> conv1
I0304 07:57:21.871134 22150 net.cpp:96] Setting up conv1
I0304 07:57:21.872135 22150 net.cpp:103] Top shape: 50 96 55 55 (14520000)
I0304 07:57:21.872159 22150 layer_factory.hpp:78] Creating layer relu1
I0304 07:57:21.872166 22150 net.cpp:67] Creating Layer relu1
I0304 07:57:21.872171 22150 net.cpp:394] relu1 <- conv1
I0304 07:57:21.872177 22150 net.cpp:345] relu1 -> conv1 (in-place)
I0304 07:57:21.872192 22150 net.cpp:96] Setting up relu1
I0304 07:57:21.872200 22150 net.cpp:103] Top shape: 50 96 55 55 (14520000)
I0304 07:57:21.872205 22150 layer_factory.hpp:78] Creating layer pool1
I0304 07:57:21.872212 22150 net.cpp:67] Creating Layer pool1
I0304 07:57:21.872217 22150 net.cpp:394] pool1 <- conv1
I0304 07:57:21.872223 22150 net.cpp:356] pool1 -> pool1
I0304 07:57:21.872230 22150 net.cpp:96] Setting up pool1
I0304 07:57:21.872238 22150 net.cpp:103] Top shape: 50 96 27 27 (3499200)
I0304 07:57:21.872243 22150 layer_factory.hpp:78] Creating layer norm1
I0304 07:57:21.872251 22150 net.cpp:67] Creating Layer norm1
I0304 07:57:21.872254 22150 net.cpp:394] norm1 <- pool1
I0304 07:57:21.872261 22150 net.cpp:356] norm1 -> norm1
I0304 07:57:21.872267 22150 net.cpp:96] Setting up norm1
I0304 07:57:21.872272 22150 net.cpp:103] Top shape: 50 96 27 27 (3499200)
I0304 07:57:21.872277 22150 layer_factory.hpp:78] Creating layer conv2
I0304 07:57:21.872283 22150 net.cpp:67] Creating Layer conv2
I0304 07:57:21.872287 22150 net.cpp:394] conv2 <- norm1
I0304 07:57:21.872293 22150 net.cpp:356] conv2 -> conv2
I0304 07:57:21.872300 22150 net.cpp:96] Setting up conv2
I0304 07:57:21.880730 22150 net.cpp:103] Top shape: 50 256 27 27 (9331200)
I0304 07:57:21.880770 22150 layer_factory.hpp:78] Creating layer relu2
I0304 07:57:21.880780 22150 net.cpp:67] Creating Layer relu2
I0304 07:57:21.880785 22150 net.cpp:394] relu2 <- conv2
I0304 07:57:21.880795 22150 net.cpp:345] relu2 -> conv2 (in-place)
I0304 07:57:21.880802 22150 net.cpp:96] Setting up relu2
I0304 07:57:21.880810 22150 net.cpp:103] Top shape: 50 256 27 27 (9331200)
I0304 07:57:21.880815 22150 layer_factory.hpp:78] Creating layer pool2
I0304 07:57:21.880823 22150 net.cpp:67] Creating Layer pool2
I0304 07:57:21.880827 22150 net.cpp:394] pool2 <- conv2
I0304 07:57:21.880836 22150 net.cpp:356] pool2 -> pool2
I0304 07:57:21.880844 22150 net.cpp:96] Setting up pool2
I0304 07:57:21.880853 22150 net.cpp:103] Top shape: 50 256 13 13 (2163200)
I0304 07:57:21.880858 22150 layer_factory.hpp:78] Creating layer norm2
I0304 07:57:21.880867 22150 net.cpp:67] Creating Layer norm2
I0304 07:57:21.880872 22150 net.cpp:394] norm2 <- pool2
I0304 07:57:21.880877 22150 net.cpp:356] norm2 -> norm2
I0304 07:57:21.880883 22150 net.cpp:96] Setting up norm2
I0304 07:57:21.880888 22150 net.cpp:103] Top shape: 50 256 13 13 (2163200)
I0304 07:57:21.880893 22150 layer_factory.hpp:78] Creating layer conv3
I0304 07:57:21.880900 22150 net.cpp:67] Creating Layer conv3
I0304 07:57:21.880904 22150 net.cpp:394] conv3 <- norm2
I0304 07:57:21.880913 22150 net.cpp:356] conv3 -> conv3
I0304 07:57:21.880919 22150 net.cpp:96] Setting up conv3
I0304 07:57:21.904522 22150 net.cpp:103] Top shape: 50 384 13 13 (3244800)
I0304 07:57:21.904559 22150 layer_factory.hpp:78] Creating layer relu3
I0304 07:57:21.904568 22150 net.cpp:67] Creating Layer relu3
I0304 07:57:21.904574 22150 net.cpp:394] relu3 <- conv3
I0304 07:57:21.904583 22150 net.cpp:345] relu3 -> conv3 (in-place)
I0304 07:57:21.904592 22150 net.cpp:96] Setting up relu3
I0304 07:57:21.904599 22150 net.cpp:103] Top shape: 50 384 13 13 (3244800)
I0304 07:57:21.904603 22150 layer_factory.hpp:78] Creating layer conv4
I0304 07:57:21.904613 22150 net.cpp:67] Creating Layer conv4
I0304 07:57:21.904618 22150 net.cpp:394] conv4 <- conv3
I0304 07:57:21.904625 22150 net.cpp:356] conv4 -> conv4
I0304 07:57:21.904633 22150 net.cpp:96] Setting up conv4
I0304 07:57:21.922245 22150 net.cpp:103] Top shape: 50 384 13 13 (3244800)
I0304 07:57:21.922277 22150 layer_factory.hpp:78] Creating layer relu4
I0304 07:57:21.922287 22150 net.cpp:67] Creating Layer relu4
I0304 07:57:21.922293 22150 net.cpp:394] relu4 <- conv4
I0304 07:57:21.922302 22150 net.cpp:345] relu4 -> conv4 (in-place)
I0304 07:57:21.922319 22150 net.cpp:96] Setting up relu4
I0304 07:57:21.922327 22150 net.cpp:103] Top shape: 50 384 13 13 (3244800)
I0304 07:57:21.922333 22150 layer_factory.hpp:78] Creating layer conv5
I0304 07:57:21.922341 22150 net.cpp:67] Creating Layer conv5
I0304 07:57:21.922353 22150 net.cpp:394] conv5 <- conv4
I0304 07:57:21.922360 22150 net.cpp:356] conv5 -> conv5
I0304 07:57:21.922368 22150 net.cpp:96] Setting up conv5
I0304 07:57:21.934317 22150 net.cpp:103] Top shape: 50 256 13 13 (2163200)
I0304 07:57:21.934353 22150 layer_factory.hpp:78] Creating layer relu5
I0304 07:57:21.934362 22150 net.cpp:67] Creating Layer relu5
I0304 07:57:21.934368 22150 net.cpp:394] relu5 <- conv5
I0304 07:57:21.934376 22150 net.cpp:345] relu5 -> conv5 (in-place)
I0304 07:57:21.934386 22150 net.cpp:96] Setting up relu5
I0304 07:57:21.934392 22150 net.cpp:103] Top shape: 50 256 13 13 (2163200)
I0304 07:57:21.934396 22150 layer_factory.hpp:78] Creating layer pool5
I0304 07:57:21.934406 22150 net.cpp:67] Creating Layer pool5
I0304 07:57:21.934411 22150 net.cpp:394] pool5 <- conv5
I0304 07:57:21.934418 22150 net.cpp:356] pool5 -> pool5
I0304 07:57:21.934425 22150 net.cpp:96] Setting up pool5
I0304 07:57:21.934435 22150 net.cpp:103] Top shape: 50 256 6 6 (460800)
I0304 07:57:21.934439 22150 layer_factory.hpp:78] Creating layer fc6
I0304 07:57:21.934448 22150 net.cpp:67] Creating Layer fc6
I0304 07:57:21.934453 22150 net.cpp:394] fc6 <- pool5
I0304 07:57:21.934460 22150 net.cpp:356] fc6 -> fc6
I0304 07:57:21.934468 22150 net.cpp:96] Setting up fc6
I0304 07:57:22.909116 22150 net.cpp:103] Top shape: 50 4096 1 1 (204800)
I0304 07:57:22.909157 22150 layer_factory.hpp:78] Creating layer relu6
I0304 07:57:22.909170 22150 net.cpp:67] Creating Layer relu6
I0304 07:57:22.909176 22150 net.cpp:394] relu6 <- fc6
I0304 07:57:22.909185 22150 net.cpp:345] relu6 -> fc6 (in-place)
I0304 07:57:22.909193 22150 net.cpp:96] Setting up relu6
I0304 07:57:22.909209 22150 net.cpp:103] Top shape: 50 4096 1 1 (204800)
I0304 07:57:22.909214 22150 layer_factory.hpp:78] Creating layer drop6
I0304 07:57:22.909219 22150 net.cpp:67] Creating Layer drop6
I0304 07:57:22.909224 22150 net.cpp:394] drop6 <- fc6
I0304 07:57:22.909231 22150 net.cpp:345] drop6 -> fc6 (in-place)
I0304 07:57:22.909237 22150 net.cpp:96] Setting up drop6
I0304 07:57:22.909242 22150 net.cpp:103] Top shape: 50 4096 1 1 (204800)
I0304 07:57:22.909246 22150 layer_factory.hpp:78] Creating layer fc7
I0304 07:57:22.909253 22150 net.cpp:67] Creating Layer fc7
I0304 07:57:22.909257 22150 net.cpp:394] fc7 <- fc6
I0304 07:57:22.909263 22150 net.cpp:356] fc7 -> fc7
I0304 07:57:22.909271 22150 net.cpp:96] Setting up fc7
I0304 07:57:23.351840 22150 net.cpp:103] Top shape: 50 4096 1 1 (204800)
I0304 07:57:23.351881 22150 layer_factory.hpp:78] Creating layer relu7
I0304 07:57:23.351891 22150 net.cpp:67] Creating Layer relu7
I0304 07:57:23.351897 22150 net.cpp:394] relu7 <- fc7
I0304 07:57:23.351912 22150 net.cpp:345] relu7 -> fc7 (in-place)
I0304 07:57:23.351919 22150 net.cpp:96] Setting up relu7
I0304 07:57:23.351935 22150 net.cpp:103] Top shape: 50 4096 1 1 (204800)
I0304 07:57:23.351940 22150 layer_factory.hpp:78] Creating layer drop7
I0304 07:57:23.351948 22150 net.cpp:67] Creating Layer drop7
I0304 07:57:23.351951 22150 net.cpp:394] drop7 <- fc7
I0304 07:57:23.351958 22150 net.cpp:345] drop7 -> fc7 (in-place)
I0304 07:57:23.351963 22150 net.cpp:96] Setting up drop7
I0304 07:57:23.351969 22150 net.cpp:103] Top shape: 50 4096 1 1 (204800)
I0304 07:57:23.351974 22150 layer_factory.hpp:78] Creating layer fc8
I0304 07:57:23.351980 22150 net.cpp:67] Creating Layer fc8
I0304 07:57:23.351985 22150 net.cpp:394] fc8 <- fc7
I0304 07:57:23.351995 22150 net.cpp:356] fc8 -> fc8
I0304 07:57:23.352006 22150 net.cpp:96] Setting up fc8
I0304 07:57:23.352236 22150 net.cpp:103] Top shape: 50 2 1 1 (100)
I0304 07:57:23.352244 22150 layer_factory.hpp:78] Creating layer fc8_fc8_0_split
I0304 07:57:23.352252 22150 net.cpp:67] Creating Layer fc8_fc8_0_split
I0304 07:57:23.352255 22150 net.cpp:394] fc8_fc8_0_split <- fc8
I0304 07:57:23.352270 22150 net.cpp:356] fc8_fc8_0_split -> fc8_fc8_0_split_0
I0304 07:57:23.352278 22150 net.cpp:356] fc8_fc8_0_split -> fc8_fc8_0_split_1
I0304 07:57:23.352284 22150 net.cpp:96] Setting up fc8_fc8_0_split
I0304 07:57:23.352290 22150 net.cpp:103] Top shape: 50 2 1 1 (100)
I0304 07:57:23.352303 22150 net.cpp:103] Top shape: 50 2 1 1 (100)
I0304 07:57:23.352308 22150 layer_factory.hpp:78] Creating layer accuracy
I0304 07:57:23.352319 22150 net.cpp:67] Creating Layer accuracy
I0304 07:57:23.352330 22150 net.cpp:394] accuracy <- fc8_fc8_0_split_0
I0304 07:57:23.352339 22150 net.cpp:394] accuracy <- label_data_1_split_0
I0304 07:57:23.352344 22150 net.cpp:356] accuracy -> accuracy
I0304 07:57:23.352351 22150 net.cpp:96] Setting up accuracy
I0304 07:57:23.352356 22150 net.cpp:103] Top shape: 1 1 1 1 (1)
I0304 07:57:23.352361 22150 layer_factory.hpp:78] Creating layer loss
I0304 07:57:23.352370 22150 net.cpp:67] Creating Layer loss
I0304 07:57:23.352375 22150 net.cpp:394] loss <- fc8_fc8_0_split_1
I0304 07:57:23.352380 22150 net.cpp:394] loss <- label_data_1_split_1
I0304 07:57:23.352385 22150 net.cpp:356] loss -> loss
I0304 07:57:23.352391 22150 net.cpp:96] Setting up loss
I0304 07:57:23.352399 22150 net.cpp:103] Top shape: 1 1 1 1 (1)
I0304 07:57:23.352403 22150 net.cpp:109]     with loss weight 1
I0304 07:57:23.352417 22150 net.cpp:170] loss needs backward computation.
I0304 07:57:23.352422 22150 net.cpp:172] accuracy does not need backward computation.
I0304 07:57:23.352427 22150 net.cpp:170] fc8_fc8_0_split needs backward computation.
I0304 07:57:23.352430 22150 net.cpp:170] fc8 needs backward computation.
I0304 07:57:23.352434 22150 net.cpp:170] drop7 needs backward computation.
…
