…
I0307 12:14:10.167646 12281 net.cpp:275] The NetState phase (0) differed from the phase (1) specified by a rule in layer accuracy
I0307 12:14:10.167799 12281 net.cpp:39] Initializing net from parameters: 
name: "CaffeNet"
layers {
  top: "data"
  top: "label"
  name: "data"
  type: DATA
  data_param {
    source: "/media/lifelogging/HDD_2TB/Objects_Detection/data_split/objDetectCNN_train_lmdb"
    batch_size: 128
    backend: LMDB
  }
  include {
    phase: TRAIN
  }
  transform_param {
    mirror: true
    crop_size: 227
    mean_file: "/usr/local/caffe-dev/examples/objDetectCNN/imagenet_mean.binaryproto"
  }
}
layers {
  bottom: "data"
  top: "conv1"
  name: "conv1"
  type: CONVOLUTION
  blobs_lr: 1
  blobs_lr: 2
  weight_decay: 1
  weight_decay: 0
  convolution_param {
    num_output: 96
    kernel_size: 11
    stride: 4
    weight_filler {
      type: "gaussian"
      std: 0.01
    }
    bias_filler {
      type: "constant"
      value: 0
    }
  }
}
layers {
  bottom: "conv1"
  top: "conv1"
  name: "relu1"
  type: RELU
}
layers {
  bottom: "conv1"
  top: "pool1"
  name: "pool1"
  type: POOLING
  pooling_param {
    pool: MAX
    kernel_size: 3
    stride: 2
  }
}
layers {
  bottom: "pool1"
  top: "norm1"
  name: "norm1"
  type: LRN
  lrn_param {
    local_size: 5
    alpha: 0.0001
    beta: 0.75
  }
}
layers {
  bottom: "norm1"
  top: "conv2"
  name: "conv2"
  type: CONVOLUTION
  blobs_lr: 1
  blobs_lr: 2
  weight_decay: 1
  weight_decay: 0
  convolution_param {
    num_output: 256
    pad: 2
    kernel_size: 5
    group: 2
    weight_filler {
      type: "gaussian"
      std: 0.01
    }
    bias_filler {
      type: "constant"
      value: 1
    }
  }
}
layers {
  bottom: "conv2"
  top: "conv2"
  name: "relu2"
  type: RELU
}
layers {
  bottom: "conv2"
  top: "pool2"
  name: "pool2"
  type: POOLING
  pooling_param {
    pool: MAX
    kernel_size: 3
    stride: 2
  }
}
layers {
  bottom: "pool2"
  top: "norm2"
  name: "norm2"
  type: LRN
  lrn_param {
    local_size: 5
    alpha: 0.0001
    beta: 0.75
  }
}
layers {
  bottom: "norm2"
  top: "conv3"
  name: "conv3"
  type: CONVOLUTION
  blobs_lr: 1
  blobs_lr: 2
  weight_decay: 1
  weight_decay: 0
  convolution_param {
    num_output: 384
    pad: 1
    kernel_size: 3
    weight_filler {
      type: "gaussian"
      std: 0.01
    }
    bias_filler {
      type: "constant"
      value: 0
    }
  }
}
layers {
  bottom: "conv3"
  top: "conv3"
  name: "relu3"
  type: RELU
}
layers {
  bottom: "conv3"
  top: "conv4"
  name: "conv4"
  type: CONVOLUTION
  blobs_lr: 1
  blobs_lr: 2
  weight_decay: 1
  weight_decay: 0
  convolution_param {
    num_output: 384
    pad: 1
    kernel_size: 3
    group: 2
    weight_filler {
      type: "gaussian"
      std: 0.01
    }
    bias_filler {
      type: "constant"
      value: 1
    }
  }
}
layers {
  bottom: "conv4"
  top: "conv4"
  name: "relu4"
  type: RELU
}
layers {
  bottom: "conv4"
  top: "conv5"
  name: "conv5"
  type: CONVOLUTION
  blobs_lr: 1
  blobs_lr: 2
  weight_decay: 1
  weight_decay: 0
  convolution_param {
    num_output: 256
    pad: 1
    kernel_size: 3
    group: 2
    weight_filler {
      type: "gaussian"
      std: 0.01
    }
    bias_filler {
      type: "constant"
      value: 1
    }
  }
}
layers {
  bottom: "conv5"
  top: "conv5"
  name: "relu5"
  type: RELU
}
layers {
  bottom: "conv5"
  top: "pool5"
  name: "pool5"
  type: POOLING
  pooling_param {
    pool: MAX
    kernel_size: 3
    stride: 2
  }
}
layers {
  bottom: "pool5"
  top: "fc6"
  name: "fc6"
  type: INNER_PRODUCT
  blobs_lr: 5
  blobs_lr: 10
  weight_decay: 1
  weight_decay: 0
  inner_product_param {
    num_output: 4096
    weight_filler {
      type: "gaussian"
      std: 0.005
    }
    bias_filler {
      type: "constant"
      value: 1
    }
  }
}
layers {
  bottom: "fc6"
  top: "fc6"
  name: "relu6"
  type: RELU
}
layers {
  bottom: "fc6"
  top: "fc6"
  name: "drop6"
  type: DROPOUT
  dropout_param {
    dropout_ratio: 0.5
  }
}
layers {
  bottom: "fc6"
  top: "fc7"
  name: "fc7"
  type: INNER_PRODUCT
  blobs_lr: 8
  blobs_lr: 15
  weight_decay: 1
  weight_decay: 0
  inner_product_param {
    num_output: 4096
    weight_filler {
      type: "gaussian"
      std: 0.005
    }
    bias_filler {
      type: "constant"
      value: 1
    }
  }
}
layers {
  bottom: "fc7"
  top: "fc7"
  name: "relu7"
  type: RELU
}
layers {
  bottom: "fc7"
  top: "fc7"
  name: "drop7"
  type: DROPOUT
  dropout_param {
    dropout_ratio: 0.5
  }
}
layers {
  bottom: "fc7"
  top: "fc8_objDetect"
  name: "fc8_objDetect"
  type: INNER_PRODUCT
  blobs_lr: 10
  blobs_lr: 20
  weight_decay: 1
  weight_decay: 0
  inner_product_param {
    num_output: 2
    weight_filler {
      type: "gaussian"
      std: 0.01
    }
    bias_filler {
      type: "constant"
      value: 0
    }
  }
}
layers {
  bottom: "fc8_objDetect"
  bottom: "label"
  top: "loss"
  name: "loss"
  type: SOFTMAX_LOSS
}
state {
  phase: TRAIN
}
I0307 12:14:10.167901 12281 layer_factory.hpp:78] Creating layer data
I0307 12:14:10.167914 12281 data_transformer.cpp:24] Loading mean file from/usr/local/caffe-dev/examples/objDetectCNN/imagenet_mean.binaryproto
I0307 12:14:10.169347 12281 net.cpp:67] Creating Layer data
I0307 12:14:10.169370 12281 net.cpp:356] data -> data
I0307 12:14:10.169389 12281 net.cpp:356] data -> label
I0307 12:14:10.169401 12281 net.cpp:96] Setting up data
I0307 12:14:10.169411 12281 data_layer.cpp:32] Opening dataset /media/lifelogging/HDD_2TB/Objects_Detection/data_split/objDetectCNN_train_lmdb
I0307 12:14:10.169857 12281 data_layer.cpp:71] output data size: 128,3,227,227
I0307 12:14:10.213037 12281 net.cpp:103] Top shape: 128 3 227 227 (19787136)
I0307 12:14:10.213079 12281 net.cpp:103] Top shape: 128 1 1 1 (128)
I0307 12:14:10.213088 12281 layer_factory.hpp:78] Creating layer conv1
I0307 12:14:10.213105 12281 net.cpp:67] Creating Layer conv1
I0307 12:14:10.213112 12281 net.cpp:394] conv1 <- data
I0307 12:14:10.213126 12281 net.cpp:356] conv1 -> conv1
I0307 12:14:10.213140 12281 net.cpp:96] Setting up conv1
I0307 12:14:10.227640 12281 net.cpp:103] Top shape: 128 96 55 55 (37171200)
I0307 12:14:10.227694 12281 layer_factory.hpp:78] Creating layer relu1
I0307 12:14:10.227708 12281 net.cpp:67] Creating Layer relu1
I0307 12:14:10.227715 12281 net.cpp:394] relu1 <- conv1
I0307 12:14:10.227723 12281 net.cpp:345] relu1 -> conv1 (in-place)
I0307 12:14:10.227733 12281 net.cpp:96] Setting up relu1
I0307 12:14:10.227743 12281 net.cpp:103] Top shape: 128 96 55 55 (37171200)
I0307 12:14:10.227748 12281 layer_factory.hpp:78] Creating layer pool1
I0307 12:14:10.227758 12281 net.cpp:67] Creating Layer pool1
I0307 12:14:10.227762 12281 net.cpp:394] pool1 <- conv1
I0307 12:14:10.227769 12281 net.cpp:356] pool1 -> pool1
I0307 12:14:10.227777 12281 net.cpp:96] Setting up pool1
I0307 12:14:10.227795 12281 net.cpp:103] Top shape: 128 96 27 27 (8957952)
I0307 12:14:10.227802 12281 layer_factory.hpp:78] Creating layer norm1
I0307 12:14:10.227812 12281 net.cpp:67] Creating Layer norm1
I0307 12:14:10.227816 12281 net.cpp:394] norm1 <- pool1
I0307 12:14:10.227823 12281 net.cpp:356] norm1 -> norm1
I0307 12:14:10.227843 12281 net.cpp:96] Setting up norm1
I0307 12:14:10.227851 12281 net.cpp:103] Top shape: 128 96 27 27 (8957952)
I0307 12:14:10.227856 12281 layer_factory.hpp:78] Creating layer conv2
I0307 12:14:10.227867 12281 net.cpp:67] Creating Layer conv2
I0307 12:14:10.227881 12281 net.cpp:394] conv2 <- norm1
I0307 12:14:10.227888 12281 net.cpp:356] conv2 -> conv2
I0307 12:14:10.227898 12281 net.cpp:96] Setting up conv2
I0307 12:14:10.236455 12281 net.cpp:103] Top shape: 128 256 27 27 (23887872)
I0307 12:14:10.236497 12281 layer_factory.hpp:78] Creating layer relu2
I0307 12:14:10.236510 12281 net.cpp:67] Creating Layer relu2
I0307 12:14:10.236515 12281 net.cpp:394] relu2 <- conv2
I0307 12:14:10.236523 12281 net.cpp:345] relu2 -> conv2 (in-place)
I0307 12:14:10.236532 12281 net.cpp:96] Setting up relu2
I0307 12:14:10.236541 12281 net.cpp:103] Top shape: 128 256 27 27 (23887872)
I0307 12:14:10.236544 12281 layer_factory.hpp:78] Creating layer pool2
I0307 12:14:10.236552 12281 net.cpp:67] Creating Layer pool2
I0307 12:14:10.236557 12281 net.cpp:394] pool2 <- conv2
I0307 12:14:10.236563 12281 net.cpp:356] pool2 -> pool2
I0307 12:14:10.236570 12281 net.cpp:96] Setting up pool2
I0307 12:14:10.236580 12281 net.cpp:103] Top shape: 128 256 13 13 (5537792)
I0307 12:14:10.236584 12281 layer_factory.hpp:78] Creating layer norm2
I0307 12:14:10.236594 12281 net.cpp:67] Creating Layer norm2
I0307 12:14:10.236599 12281 net.cpp:394] norm2 <- pool2
I0307 12:14:10.236608 12281 net.cpp:356] norm2 -> norm2
I0307 12:14:10.236614 12281 net.cpp:96] Setting up norm2
I0307 12:14:10.236619 12281 net.cpp:103] Top shape: 128 256 13 13 (5537792)
I0307 12:14:10.236624 12281 layer_factory.hpp:78] Creating layer conv3
I0307 12:14:10.236631 12281 net.cpp:67] Creating Layer conv3
I0307 12:14:10.236636 12281 net.cpp:394] conv3 <- norm2
I0307 12:14:10.236644 12281 net.cpp:356] conv3 -> conv3
I0307 12:14:10.236652 12281 net.cpp:96] Setting up conv3
I0307 12:14:10.259608 12281 net.cpp:103] Top shape: 128 384 13 13 (8306688)
I0307 12:14:10.259650 12281 layer_factory.hpp:78] Creating layer relu3
I0307 12:14:10.259660 12281 net.cpp:67] Creating Layer relu3
I0307 12:14:10.259665 12281 net.cpp:394] relu3 <- conv3
I0307 12:14:10.259673 12281 net.cpp:345] relu3 -> conv3 (in-place)
I0307 12:14:10.259681 12281 net.cpp:96] Setting up relu3
I0307 12:14:10.259688 12281 net.cpp:103] Top shape: 128 384 13 13 (8306688)
I0307 12:14:10.259693 12281 layer_factory.hpp:78] Creating layer conv4
I0307 12:14:10.259703 12281 net.cpp:67] Creating Layer conv4
I0307 12:14:10.259708 12281 net.cpp:394] conv4 <- conv3
I0307 12:14:10.259716 12281 net.cpp:356] conv4 -> conv4
I0307 12:14:10.259724 12281 net.cpp:96] Setting up conv4
I0307 12:14:10.277845 12281 net.cpp:103] Top shape: 128 384 13 13 (8306688)
I0307 12:14:10.277887 12281 layer_factory.hpp:78] Creating layer relu4
I0307 12:14:10.277899 12281 net.cpp:67] Creating Layer relu4
I0307 12:14:10.277905 12281 net.cpp:394] relu4 <- conv4
I0307 12:14:10.277915 12281 net.cpp:345] relu4 -> conv4 (in-place)
I0307 12:14:10.277923 12281 net.cpp:96] Setting up relu4
I0307 12:14:10.277930 12281 net.cpp:103] Top shape: 128 384 13 13 (8306688)
I0307 12:14:10.277935 12281 layer_factory.hpp:78] Creating layer conv5
I0307 12:14:10.277943 12281 net.cpp:67] Creating Layer conv5
I0307 12:14:10.277948 12281 net.cpp:394] conv5 <- conv4
I0307 12:14:10.277956 12281 net.cpp:356] conv5 -> conv5
I0307 12:14:10.277964 12281 net.cpp:96] Setting up conv5
I0307 12:14:10.289566 12281 net.cpp:103] Top shape: 128 256 13 13 (5537792)
I0307 12:14:10.289611 12281 layer_factory.hpp:78] Creating layer relu5
I0307 12:14:10.289625 12281 net.cpp:67] Creating Layer relu5
I0307 12:14:10.289631 12281 net.cpp:394] relu5 <- conv5
I0307 12:14:10.289639 12281 net.cpp:345] relu5 -> conv5 (in-place)
I0307 12:14:10.289649 12281 net.cpp:96] Setting up relu5
I0307 12:14:10.289655 12281 net.cpp:103] Top shape: 128 256 13 13 (5537792)
I0307 12:14:10.289660 12281 layer_factory.hpp:78] Creating layer pool5
I0307 12:14:10.289667 12281 net.cpp:67] Creating Layer pool5
I0307 12:14:10.289682 12281 net.cpp:394] pool5 <- conv5
I0307 12:14:10.289690 12281 net.cpp:356] pool5 -> pool5
I0307 12:14:10.289696 12281 net.cpp:96] Setting up pool5
I0307 12:14:10.289706 12281 net.cpp:103] Top shape: 128 256 6 6 (1179648)
I0307 12:14:10.289711 12281 layer_factory.hpp:78] Creating layer fc6
I0307 12:14:10.289734 12281 net.cpp:67] Creating Layer fc6
I0307 12:14:10.289739 12281 net.cpp:394] fc6 <- pool5
I0307 12:14:10.289747 12281 net.cpp:356] fc6 -> fc6
I0307 12:14:10.289755 12281 net.cpp:96] Setting up fc6
I0307 12:14:11.284554 12281 net.cpp:103] Top shape: 128 4096 1 1 (524288)
I0307 12:14:11.284598 12281 layer_factory.hpp:78] Creating layer relu6
I0307 12:14:11.284610 12281 net.cpp:67] Creating Layer relu6
I0307 12:14:11.284616 12281 net.cpp:394] relu6 <- fc6
I0307 12:14:11.284626 12281 net.cpp:345] relu6 -> fc6 (in-place)
I0307 12:14:11.284634 12281 net.cpp:96] Setting up relu6
I0307 12:14:11.284651 12281 net.cpp:103] Top shape: 128 4096 1 1 (524288)
I0307 12:14:11.284657 12281 layer_factory.hpp:78] Creating layer drop6
I0307 12:14:11.284667 12281 net.cpp:67] Creating Layer drop6
I0307 12:14:11.284672 12281 net.cpp:394] drop6 <- fc6
I0307 12:14:11.284679 12281 net.cpp:345] drop6 -> fc6 (in-place)
I0307 12:14:11.284687 12281 net.cpp:96] Setting up drop6
I0307 12:14:11.284693 12281 net.cpp:103] Top shape: 128 4096 1 1 (524288)
I0307 12:14:11.284698 12281 layer_factory.hpp:78] Creating layer fc7
I0307 12:14:11.284705 12281 net.cpp:67] Creating Layer fc7
I0307 12:14:11.284710 12281 net.cpp:394] fc7 <- fc6
I0307 12:14:11.284718 12281 net.cpp:356] fc7 -> fc7
I0307 12:14:11.284725 12281 net.cpp:96] Setting up fc7
I0307 12:14:11.718852 12281 net.cpp:103] Top shape: 128 4096 1 1 (524288)
I0307 12:14:11.718896 12281 layer_factory.hpp:78] Creating layer relu7
I0307 12:14:11.718906 12281 net.cpp:67] Creating Layer relu7
I0307 12:14:11.718912 12281 net.cpp:394] relu7 <- fc7
I0307 12:14:11.718924 12281 net.cpp:345] relu7 -> fc7 (in-place)
I0307 12:14:11.718931 12281 net.cpp:96] Setting up relu7
I0307 12:14:11.718948 12281 net.cpp:103] Top shape: 128 4096 1 1 (524288)
I0307 12:14:11.718953 12281 layer_factory.hpp:78] Creating layer drop7
I0307 12:14:11.718961 12281 net.cpp:67] Creating Layer drop7
I0307 12:14:11.718965 12281 net.cpp:394] drop7 <- fc7
I0307 12:14:11.718971 12281 net.cpp:345] drop7 -> fc7 (in-place)
I0307 12:14:11.718977 12281 net.cpp:96] Setting up drop7
I0307 12:14:11.718982 12281 net.cpp:103] Top shape: 128 4096 1 1 (524288)
I0307 12:14:11.718986 12281 layer_factory.hpp:78] Creating layer fc8_objDetect
I0307 12:14:11.718997 12281 net.cpp:67] Creating Layer fc8_objDetect
I0307 12:14:11.719002 12281 net.cpp:394] fc8_objDetect <- fc7
I0307 12:14:11.719009 12281 net.cpp:356] fc8_objDetect -> fc8_objDetect
I0307 12:14:11.719017 12281 net.cpp:96] Setting up fc8_objDetect
I0307 12:14:11.719238 12281 net.cpp:103] Top shape: 128 2 1 1 (256)
I0307 12:14:11.719245 12281 layer_factory.hpp:78] Creating layer loss
I0307 12:14:11.719255 12281 net.cpp:67] Creating Layer loss
I0307 12:14:11.719260 12281 net.cpp:394] loss <- fc8_objDetect
I0307 12:14:11.719266 12281 net.cpp:394] loss <- label
I0307 12:14:11.719274 12281 net.cpp:356] loss -> loss
I0307 12:14:11.719283 12281 net.cpp:96] Setting up loss
I0307 12:14:11.719295 12281 net.cpp:103] Top shape: 1 1 1 1 (1)
I0307 12:14:11.719300 12281 net.cpp:109]     with loss weight 1
I0307 12:14:11.719331 12281 net.cpp:170] loss needs backward computation.
I0307 12:14:11.719336 12281 net.cpp:170] fc8_objDetect needs backward computation.
I0307 12:14:11.719339 12281 net.cpp:170] drop7 needs backward computation.
I0307 12:14:11.719343 12281 net.cpp:170] relu7 needs backward computation.
I0307 12:14:11.719347 12281 net.cpp:170] fc7 needs backward computation.
…
I0307 12:14:11.720124 12281 net.cpp:275] The NetState phase (1) differed from the phase (0) specified by a rule in layer data
I0307 12:14:11.720288 12281 net.cpp:39] Initializing net from parameters: 
name: "CaffeNet"
layers {
  top: "data"
  top: "label"
  name: "data"
  type: DATA
  data_param {
    source: "/media/lifelogging/HDD_2TB/Objects_Detection/data_split/objDetectCNN_val_lmdb"
    batch_size: 50
    backend: LMDB
  }
  include {
    phase: TEST
  }
  transform_param {
    mirror: false
    crop_size: 227
    mean_file: "/usr/local/caffe-dev/examples/objDetectCNN/imagenet_mean.binaryproto"
  }
}
layers {
  bottom: "data"
  top: "conv1"
  name: "conv1"
  type: CONVOLUTION
  blobs_lr: 1
  blobs_lr: 2
  weight_decay: 1
  weight_decay: 0
  convolution_param {
    num_output: 96
    kernel_size: 11
    stride: 4
    weight_filler {
      type: "gaussian"
      std: 0.01
    }
    bias_filler {
      type: "constant"
      value: 0
    }
  }
}
layers {
  bottom: "conv1"
  top: "conv1"
  name: "relu1"
  type: RELU
}
layers {
  bottom: "conv1"
  top: "pool1"
  name: "pool1"
  type: POOLING
  pooling_param {
    pool: MAX
    kernel_size: 3
    stride: 2
  }
}
layers {
  bottom: "pool1"
  top: "norm1"
  name: "norm1"
  type: LRN
  lrn_param {
    local_size: 5
    alpha: 0.0001
    beta: 0.75
  }
}
layers {
  bottom: "norm1"
  top: "conv2"
  name: "conv2"
  type: CONVOLUTION
  blobs_lr: 1
  blobs_lr: 2
  weight_decay: 1
  weight_decay: 0
  convolution_param {
    num_output: 256
    pad: 2
    kernel_size: 5
    group: 2
    weight_filler {
      type: "gaussian"
      std: 0.01
    }
    bias_filler {
      type: "constant"
      value: 1
    }
  }
}
layers {
  bottom: "conv2"
  top: "conv2"
  name: "relu2"
  type: RELU
}
layers {
  bottom: "conv2"
  top: "pool2"
  name: "pool2"
  type: POOLING
  pooling_param {
    pool: MAX
    kernel_size: 3
    stride: 2
  }
}
layers {
  bottom: "pool2"
  top: "norm2"
  name: "norm2"
  type: LRN
  lrn_param {
    local_size: 5
    alpha: 0.0001
    beta: 0.75
  }
}
layers {
  bottom: "norm2"
  top: "conv3"
  name: "conv3"
  type: CONVOLUTION
  blobs_lr: 1
  blobs_lr: 2
  weight_decay: 1
  weight_decay: 0
  convolution_param {
    num_output: 384
    pad: 1
    kernel_size: 3
    weight_filler {
      type: "gaussian"
      std: 0.01
    }
    bias_filler {
      type: "constant"
      value: 0
    }
  }
}
layers {
  bottom: "conv3"
  top: "conv3"
  name: "relu3"
  type: RELU
}
layers {
  bottom: "conv3"
  top: "conv4"
  name: "conv4"
  type: CONVOLUTION
  blobs_lr: 1
  blobs_lr: 2
  weight_decay: 1
  weight_decay: 0
  convolution_param {
    num_output: 384
    pad: 1
    kernel_size: 3
    group: 2
    weight_filler {
      type: "gaussian"
      std: 0.01
    }
    bias_filler {
      type: "constant"
      value: 1
    }
  }
}
layers {
  bottom: "conv4"
  top: "conv4"
  name: "relu4"
  type: RELU
}
layers {
  bottom: "conv4"
  top: "conv5"
  name: "conv5"
  type: CONVOLUTION
  blobs_lr: 1
  blobs_lr: 2
  weight_decay: 1
  weight_decay: 0
  convolution_param {
    num_output: 256
    pad: 1
    kernel_size: 3
    group: 2
    weight_filler {
      type: "gaussian"
      std: 0.01
    }
    bias_filler {
      type: "constant"
      value: 1
    }
  }
}
layers {
  bottom: "conv5"
  top: "conv5"
  name: "relu5"
  type: RELU
}
layers {
  bottom: "conv5"
  top: "pool5"
  name: "pool5"
  type: POOLING
  pooling_param {
    pool: MAX
    kernel_size: 3
    stride: 2
  }
}
layers {
  bottom: "pool5"
  top: "fc6"
  name: "fc6"
  type: INNER_PRODUCT
  blobs_lr: 5
  blobs_lr: 10
  weight_decay: 1
  weight_decay: 0
  inner_product_param {
    num_output: 4096
    weight_filler {
      type: "gaussian"
      std: 0.005
    }
    bias_filler {
      type: "constant"
      value: 1
    }
  }
}
layers {
  bottom: "fc6"
  top: "fc6"
  name: "relu6"
  type: RELU
}
layers {
  bottom: "fc6"
  top: "fc6"
  name: "drop6"
  type: DROPOUT
  dropout_param {
    dropout_ratio: 0.5
  }
}
layers {
  bottom: "fc6"
  top: "fc7"
  name: "fc7"
  type: INNER_PRODUCT
  blobs_lr: 8
  blobs_lr: 15
  weight_decay: 1
  weight_decay: 0
  inner_product_param {
    num_output: 4096
    weight_filler {
      type: "gaussian"
      std: 0.005
    }
    bias_filler {
      type: "constant"
      value: 1
    }
  }
}
layers {
  bottom: "fc7"
  top: "fc7"
  name: "relu7"
  type: RELU
}
layers {
  bottom: "fc7"
  top: "fc7"
  name: "drop7"
  type: DROPOUT
  dropout_param {
    dropout_ratio: 0.5
  }
}
layers {
  bottom: "fc7"
  top: "fc8_objDetect"
  name: "fc8_objDetect"
  type: INNER_PRODUCT
  blobs_lr: 10
  blobs_lr: 20
  weight_decay: 1
  weight_decay: 0
  inner_product_param {
    num_output: 2
    weight_filler {
      type: "gaussian"
      std: 0.01
    }
    bias_filler {
      type: "constant"
      value: 0
    }
  }
}
layers {
  bottom: "fc8_objDetect"
  bottom: "label"
  top: "accuracy"
  name: "accuracy"
  type: ACCURACY
  include {
    phase: TEST
  }
}
layers {
  bottom: "fc8_objDetect"
  bottom: "label"
  top: "loss"
  name: "loss"
  type: SOFTMAX_LOSS
}
state {
  phase: TEST
}
I0307 12:14:11.720407 12281 layer_factory.hpp:78] Creating layer data
I0307 12:14:11.720417 12281 data_transformer.cpp:24] Loading mean file from/usr/local/caffe-dev/examples/objDetectCNN/imagenet_mean.binaryproto
I0307 12:14:11.721818 12281 net.cpp:67] Creating Layer data
I0307 12:14:11.721843 12281 net.cpp:356] data -> data
I0307 12:14:11.721856 12281 net.cpp:356] data -> label
I0307 12:14:11.721864 12281 net.cpp:96] Setting up data
I0307 12:14:11.721870 12281 data_layer.cpp:32] Opening dataset /media/lifelogging/HDD_2TB/Objects_Detection/data_split/objDetectCNN_val_lmdb
I0307 12:14:11.722292 12281 data_layer.cpp:71] output data size: 50,3,227,227
I0307 12:14:11.749905 12281 net.cpp:103] Top shape: 50 3 227 227 (7729350)
I0307 12:14:11.749948 12281 net.cpp:103] Top shape: 50 1 1 1 (50)
I0307 12:14:11.749958 12281 layer_factory.hpp:78] Creating layer label_data_1_split
I0307 12:14:11.749977 12281 net.cpp:67] Creating Layer label_data_1_split
I0307 12:14:11.749984 12281 net.cpp:394] label_data_1_split <- label
I0307 12:14:11.749994 12281 net.cpp:356] label_data_1_split -> label_data_1_split_0
I0307 12:14:11.750008 12281 net.cpp:356] label_data_1_split -> label_data_1_split_1
I0307 12:14:11.750016 12281 net.cpp:96] Setting up label_data_1_split
I0307 12:14:11.750023 12281 net.cpp:103] Top shape: 50 1 1 1 (50)
I0307 12:14:11.750028 12281 net.cpp:103] Top shape: 50 1 1 1 (50)
I0307 12:14:11.750033 12281 layer_factory.hpp:78] Creating layer conv1
I0307 12:14:11.750042 12281 net.cpp:67] Creating Layer conv1
I0307 12:14:11.750059 12281 net.cpp:394] conv1 <- data
I0307 12:14:11.750066 12281 net.cpp:356] conv1 -> conv1
I0307 12:14:11.750074 12281 net.cpp:96] Setting up conv1
I0307 12:14:11.751046 12281 net.cpp:103] Top shape: 50 96 55 55 (14520000)
I0307 12:14:11.751068 12281 layer_factory.hpp:78] Creating layer relu1
I0307 12:14:11.751086 12281 net.cpp:67] Creating Layer relu1
I0307 12:14:11.751091 12281 net.cpp:394] relu1 <- conv1
I0307 12:14:11.751098 12281 net.cpp:345] relu1 -> conv1 (in-place)
I0307 12:14:11.751106 12281 net.cpp:96] Setting up relu1
I0307 12:14:11.751112 12281 net.cpp:103] Top shape: 50 96 55 55 (14520000)
I0307 12:14:11.751117 12281 layer_factory.hpp:78] Creating layer pool1
I0307 12:14:11.751124 12281 net.cpp:67] Creating Layer pool1
I0307 12:14:11.751129 12281 net.cpp:394] pool1 <- conv1
I0307 12:14:11.751135 12281 net.cpp:356] pool1 -> pool1
I0307 12:14:11.751142 12281 net.cpp:96] Setting up pool1
I0307 12:14:11.751152 12281 net.cpp:103] Top shape: 50 96 27 27 (3499200)
I0307 12:14:11.751155 12281 layer_factory.hpp:78] Creating layer norm1
I0307 12:14:11.751163 12281 net.cpp:67] Creating Layer norm1
I0307 12:14:11.751168 12281 net.cpp:394] norm1 <- pool1
I0307 12:14:11.751173 12281 net.cpp:356] norm1 -> norm1
I0307 12:14:11.751179 12281 net.cpp:96] Setting up norm1
I0307 12:14:11.751185 12281 net.cpp:103] Top shape: 50 96 27 27 (3499200)
I0307 12:14:11.751189 12281 layer_factory.hpp:78] Creating layer conv2
I0307 12:14:11.751196 12281 net.cpp:67] Creating Layer conv2
I0307 12:14:11.751201 12281 net.cpp:394] conv2 <- norm1
I0307 12:14:11.751207 12281 net.cpp:356] conv2 -> conv2
I0307 12:14:11.751214 12281 net.cpp:96] Setting up conv2
I0307 12:14:11.759318 12281 net.cpp:103] Top shape: 50 256 27 27 (9331200)
I0307 12:14:11.759361 12281 layer_factory.hpp:78] Creating layer relu2
I0307 12:14:11.759372 12281 net.cpp:67] Creating Layer relu2
I0307 12:14:11.759378 12281 net.cpp:394] relu2 <- conv2
I0307 12:14:11.759387 12281 net.cpp:345] relu2 -> conv2 (in-place)
I0307 12:14:11.759395 12281 net.cpp:96] Setting up relu2
I0307 12:14:11.759403 12281 net.cpp:103] Top shape: 50 256 27 27 (9331200)
I0307 12:14:11.759408 12281 layer_factory.hpp:78] Creating layer pool2
I0307 12:14:11.759418 12281 net.cpp:67] Creating Layer pool2
I0307 12:14:11.759423 12281 net.cpp:394] pool2 <- conv2
I0307 12:14:11.759430 12281 net.cpp:356] pool2 -> pool2
I0307 12:14:11.759440 12281 net.cpp:96] Setting up pool2
I0307 12:14:11.759449 12281 net.cpp:103] Top shape: 50 256 13 13 (2163200)
I0307 12:14:11.759454 12281 layer_factory.hpp:78] Creating layer norm2
I0307 12:14:11.759464 12281 net.cpp:67] Creating Layer norm2
I0307 12:14:11.759469 12281 net.cpp:394] norm2 <- pool2
I0307 12:14:11.759474 12281 net.cpp:356] norm2 -> norm2
I0307 12:14:11.759481 12281 net.cpp:96] Setting up norm2
I0307 12:14:11.759487 12281 net.cpp:103] Top shape: 50 256 13 13 (2163200)
I0307 12:14:11.759491 12281 layer_factory.hpp:78] Creating layer conv3
I0307 12:14:11.759500 12281 net.cpp:67] Creating Layer conv3
I0307 12:14:11.759505 12281 net.cpp:394] conv3 <- norm2
I0307 12:14:11.759512 12281 net.cpp:356] conv3 -> conv3
I0307 12:14:11.759520 12281 net.cpp:96] Setting up conv3
I0307 12:14:11.782935 12281 net.cpp:103] Top shape: 50 384 13 13 (3244800)
I0307 12:14:11.782984 12281 layer_factory.hpp:78] Creating layer relu3
I0307 12:14:11.782994 12281 net.cpp:67] Creating Layer relu3
I0307 12:14:11.783000 12281 net.cpp:394] relu3 <- conv3
I0307 12:14:11.783010 12281 net.cpp:345] relu3 -> conv3 (in-place)
I0307 12:14:11.783020 12281 net.cpp:96] Setting up relu3
I0307 12:14:11.783026 12281 net.cpp:103] Top shape: 50 384 13 13 (3244800)
I0307 12:14:11.783031 12281 layer_factory.hpp:78] Creating layer conv4
I0307 12:14:11.783040 12281 net.cpp:67] Creating Layer conv4
I0307 12:14:11.783045 12281 net.cpp:394] conv4 <- conv3
I0307 12:14:11.783052 12281 net.cpp:356] conv4 -> conv4
I0307 12:14:11.783061 12281 net.cpp:96] Setting up conv4
I0307 12:14:11.800230 12281 net.cpp:103] Top shape: 50 384 13 13 (3244800)
I0307 12:14:11.800266 12281 layer_factory.hpp:78] Creating layer relu4
I0307 12:14:11.800287 12281 net.cpp:67] Creating Layer relu4
I0307 12:14:11.800294 12281 net.cpp:394] relu4 <- conv4
I0307 12:14:11.800302 12281 net.cpp:345] relu4 -> conv4 (in-place)
I0307 12:14:11.800310 12281 net.cpp:96] Setting up relu4
I0307 12:14:11.800318 12281 net.cpp:103] Top shape: 50 384 13 13 (3244800)
I0307 12:14:11.800341 12281 layer_factory.hpp:78] Creating layer conv5
I0307 12:14:11.800351 12281 net.cpp:67] Creating Layer conv5
I0307 12:14:11.800356 12281 net.cpp:394] conv5 <- conv4
I0307 12:14:11.800364 12281 net.cpp:356] conv5 -> conv5
I0307 12:14:11.800371 12281 net.cpp:96] Setting up conv5
I0307 12:14:11.812489 12281 net.cpp:103] Top shape: 50 256 13 13 (2163200)
I0307 12:14:11.812536 12281 layer_factory.hpp:78] Creating layer relu5
I0307 12:14:11.812546 12281 net.cpp:67] Creating Layer relu5
I0307 12:14:11.812552 12281 net.cpp:394] relu5 <- conv5
I0307 12:14:11.812561 12281 net.cpp:345] relu5 -> conv5 (in-place)
I0307 12:14:11.812569 12281 net.cpp:96] Setting up relu5
I0307 12:14:11.812577 12281 net.cpp:103] Top shape: 50 256 13 13 (2163200)
I0307 12:14:11.812582 12281 layer_factory.hpp:78] Creating layer pool5
I0307 12:14:11.812592 12281 net.cpp:67] Creating Layer pool5
I0307 12:14:11.812597 12281 net.cpp:394] pool5 <- conv5
I0307 12:14:11.812603 12281 net.cpp:356] pool5 -> pool5
I0307 12:14:11.812611 12281 net.cpp:96] Setting up pool5
I0307 12:14:11.812620 12281 net.cpp:103] Top shape: 50 256 6 6 (460800)
I0307 12:14:11.812625 12281 layer_factory.hpp:78] Creating layer fc6
I0307 12:14:11.812634 12281 net.cpp:67] Creating Layer fc6
I0307 12:14:11.812638 12281 net.cpp:394] fc6 <- pool5
I0307 12:14:11.812645 12281 net.cpp:356] fc6 -> fc6
I0307 12:14:11.812654 12281 net.cpp:96] Setting up fc6
I0307 12:14:12.810881 12281 net.cpp:103] Top shape: 50 4096 1 1 (204800)
I0307 12:14:12.810927 12281 layer_factory.hpp:78] Creating layer relu6
I0307 12:14:12.810940 12281 net.cpp:67] Creating Layer relu6
I0307 12:14:12.810945 12281 net.cpp:394] relu6 <- fc6
I0307 12:14:12.810956 12281 net.cpp:345] relu6 -> fc6 (in-place)
I0307 12:14:12.810963 12281 net.cpp:96] Setting up relu6
I0307 12:14:12.810979 12281 net.cpp:103] Top shape: 50 4096 1 1 (204800)
I0307 12:14:12.810984 12281 layer_factory.hpp:78] Creating layer drop6
I0307 12:14:12.810992 12281 net.cpp:67] Creating Layer drop6
I0307 12:14:12.810995 12281 net.cpp:394] drop6 <- fc6
I0307 12:14:12.811003 12281 net.cpp:345] drop6 -> fc6 (in-place)
I0307 12:14:12.811010 12281 net.cpp:96] Setting up drop6
I0307 12:14:12.811015 12281 net.cpp:103] Top shape: 50 4096 1 1 (204800)
I0307 12:14:12.811019 12281 layer_factory.hpp:78] Creating layer fc7
I0307 12:14:12.811028 12281 net.cpp:67] Creating Layer fc7
I0307 12:14:12.811031 12281 net.cpp:394] fc7 <- fc6
I0307 12:14:12.811038 12281 net.cpp:356] fc7 -> fc7
I0307 12:14:12.811045 12281 net.cpp:96] Setting up fc7
I0307 12:14:13.242081 12281 net.cpp:103] Top shape: 50 4096 1 1 (204800)
I0307 12:14:13.242116 12281 layer_factory.hpp:78] Creating layer relu7
I0307 12:14:13.242125 12281 net.cpp:67] Creating Layer relu7
I0307 12:14:13.242131 12281 net.cpp:394] relu7 <- fc7
I0307 12:14:13.242141 12281 net.cpp:345] relu7 -> fc7 (in-place)
I0307 12:14:13.242151 12281 net.cpp:96] Setting up relu7
I0307 12:14:13.242166 12281 net.cpp:103] Top shape: 50 4096 1 1 (204800)
I0307 12:14:13.242172 12281 layer_factory.hpp:78] Creating layer drop7
I0307 12:14:13.242178 12281 net.cpp:67] Creating Layer drop7
I0307 12:14:13.242183 12281 net.cpp:394] drop7 <- fc7
I0307 12:14:13.242189 12281 net.cpp:345] drop7 -> fc7 (in-place)
I0307 12:14:13.242195 12281 net.cpp:96] Setting up drop7
I0307 12:14:13.242202 12281 net.cpp:103] Top shape: 50 4096 1 1 (204800)
I0307 12:14:13.242205 12281 layer_factory.hpp:78] Creating layer fc8_objDetect
I0307 12:14:13.242213 12281 net.cpp:67] Creating Layer fc8_objDetect
I0307 12:14:13.242218 12281 net.cpp:394] fc8_objDetect <- fc7
I0307 12:14:13.242225 12281 net.cpp:356] fc8_objDetect -> fc8_objDetect
I0307 12:14:13.242236 12281 net.cpp:96] Setting up fc8_objDetect
I0307 12:14:13.242457 12281 net.cpp:103] Top shape: 50 2 1 1 (100)
I0307 12:14:13.242473 12281 layer_factory.hpp:78] Creating layer fc8_objDetect_fc8_objDetect_0_split
I0307 12:14:13.242480 12281 net.cpp:67] Creating Layer fc8_objDetect_fc8_objDetect_0_split
I0307 12:14:13.242485 12281 net.cpp:394] fc8_objDetect_fc8_objDetect_0_split <- fc8_objDetect
I0307 12:14:13.242498 12281 net.cpp:356] fc8_objDetect_fc8_objDetect_0_split -> fc8_objDetect_fc8_objDetect_0_split_0
I0307 12:14:13.242506 12281 net.cpp:356] fc8_objDetect_fc8_objDetect_0_split -> fc8_objDetect_fc8_objDetect_0_split_1
I0307 12:14:13.242513 12281 net.cpp:96] Setting up fc8_objDetect_fc8_objDetect_0_split
I0307 12:14:13.242518 12281 net.cpp:103] Top shape: 50 2 1 1 (100)
I0307 12:14:13.242523 12281 net.cpp:103] Top shape: 50 2 1 1 (100)
I0307 12:14:13.242527 12281 layer_factory.hpp:78] Creating layer accuracy
I0307 12:14:13.242537 12281 net.cpp:67] Creating Layer accuracy
I0307 12:14:13.242542 12281 net.cpp:394] accuracy <- fc8_objDetect_fc8_objDetect_0_split_0
I0307 12:14:13.242548 12281 net.cpp:394] accuracy <- label_data_1_split_0
I0307 12:14:13.242554 12281 net.cpp:356] accuracy -> accuracy
I0307 12:14:13.242561 12281 net.cpp:96] Setting up accuracy
I0307 12:14:13.242566 12281 net.cpp:103] Top shape: 1 1 1 1 (1)
I0307 12:14:13.242570 12281 layer_factory.hpp:78] Creating layer loss
I0307 12:14:13.242579 12281 net.cpp:67] Creating Layer loss
I0307 12:14:13.242583 12281 net.cpp:394] loss <- fc8_objDetect_fc8_objDetect_0_split_1
I0307 12:14:13.242589 12281 net.cpp:394] loss <- label_data_1_split_1
I0307 12:14:13.242595 12281 net.cpp:356] loss -> loss
I0307 12:14:13.242601 12281 net.cpp:96] Setting up loss
I0307 12:14:13.242609 12281 net.cpp:103] Top shape: 1 1 1 1 (1)
I0307 12:14:13.242614 12281 net.cpp:109]     with loss weight 1
I0307 12:14:13.242627 12281 net.cpp:170] loss needs backward computation.
I0307 12:14:13.242631 12281 net.cpp:172] accuracy does not need backward computation.
I0307 12:14:13.242636 12281 net.cpp:170] fc8_objDetect_fc8_objDetect_0_split needs backward computation.
I0307 12:14:13.242640 12281 net.cpp:170] fc8_objDetect needs backward computation.
…
