…
I0307 20:50:15.135632  5089 net.cpp:275] The NetState phase (0) differed from the phase (1) specified by a rule in layer accuracy
I0307 20:50:15.135779  5089 net.cpp:39] Initializing net from parameters: 
name: "CaffeNet"
layers {
  top: "data"
  top: "label"
  name: "data"
  type: DATA
  data_param {
    source: "/media/lifelogging/HDD_2TB/Objects_Detection/data_split/objDetectCNN_train_lmdb"
    batch_size: 128
    backend: LMDB
  }
  include {
    phase: TRAIN
  }
  transform_param {
    mirror: true
    crop_size: 227
    mean_file: "/usr/local/caffe-dev/examples/objDetectCNN/imagenet_mean.binaryproto"
  }
}
layers {
  bottom: "data"
  top: "conv1"
  name: "conv1"
  type: CONVOLUTION
  blobs_lr: 1
  blobs_lr: 2
  weight_decay: 1
  weight_decay: 0
  convolution_param {
    num_output: 96
    kernel_size: 11
    stride: 4
    weight_filler {
      type: "gaussian"
      std: 0.01
    }
    bias_filler {
      type: "constant"
      value: 0
    }
  }
}
layers {
  bottom: "conv1"
  top: "conv1"
  name: "relu1"
  type: RELU
}
layers {
  bottom: "conv1"
  top: "pool1"
  name: "pool1"
  type: POOLING
  pooling_param {
    pool: MAX
    kernel_size: 3
    stride: 2
  }
}
layers {
  bottom: "pool1"
  top: "norm1"
  name: "norm1"
  type: LRN
  lrn_param {
    local_size: 5
    alpha: 0.0001
    beta: 0.75
  }
}
layers {
  bottom: "norm1"
  top: "conv2"
  name: "conv2"
  type: CONVOLUTION
  blobs_lr: 1
  blobs_lr: 2
  weight_decay: 1
  weight_decay: 0
  convolution_param {
    num_output: 256
    pad: 2
    kernel_size: 5
    group: 2
    weight_filler {
      type: "gaussian"
      std: 0.01
    }
    bias_filler {
      type: "constant"
      value: 1
    }
  }
}
layers {
  bottom: "conv2"
  top: "conv2"
  name: "relu2"
  type: RELU
}
layers {
  bottom: "conv2"
  top: "pool2"
  name: "pool2"
  type: POOLING
  pooling_param {
    pool: MAX
    kernel_size: 3
    stride: 2
  }
}
layers {
  bottom: "pool2"
  top: "norm2"
  name: "norm2"
  type: LRN
  lrn_param {
    local_size: 5
    alpha: 0.0001
    beta: 0.75
  }
}
layers {
  bottom: "norm2"
  top: "conv3"
  name: "conv3"
  type: CONVOLUTION
  blobs_lr: 1
  blobs_lr: 2
  weight_decay: 1
  weight_decay: 0
  convolution_param {
    num_output: 384
    pad: 1
    kernel_size: 3
    weight_filler {
      type: "gaussian"
      std: 0.01
    }
    bias_filler {
      type: "constant"
      value: 0
    }
  }
}
layers {
  bottom: "conv3"
  top: "conv3"
  name: "relu3"
  type: RELU
}
layers {
  bottom: "conv3"
  top: "conv4"
  name: "conv4"
  type: CONVOLUTION
  blobs_lr: 1
  blobs_lr: 2
  weight_decay: 1
  weight_decay: 0
  convolution_param {
    num_output: 384
    pad: 1
    kernel_size: 3
    group: 2
    weight_filler {
      type: "gaussian"
      std: 0.01
    }
    bias_filler {
      type: "constant"
      value: 1
    }
  }
}
layers {
  bottom: "conv4"
  top: "conv4"
  name: "relu4"
  type: RELU
}
layers {
  bottom: "conv4"
  top: "conv5"
  name: "conv5"
  type: CONVOLUTION
  blobs_lr: 1
  blobs_lr: 2
  weight_decay: 1
  weight_decay: 0
  convolution_param {
    num_output: 256
    pad: 1
    kernel_size: 3
    group: 2
    weight_filler {
      type: "gaussian"
      std: 0.01
    }
    bias_filler {
      type: "constant"
      value: 1
    }
  }
}
layers {
  bottom: "conv5"
  top: "conv5"
  name: "relu5"
  type: RELU
}
layers {
  bottom: "conv5"
  top: "pool5"
  name: "pool5"
  type: POOLING
  pooling_param {
    pool: MAX
    kernel_size: 3
    stride: 2
  }
}
layers {
  bottom: "pool5"
  top: "fc6"
  name: "fc6"
  type: INNER_PRODUCT
  blobs_lr: 5
  blobs_lr: 10
  weight_decay: 1
  weight_decay: 0
  inner_product_param {
    num_output: 4096
    weight_filler {
      type: "gaussian"
      std: 0.005
    }
    bias_filler {
      type: "constant"
      value: 1
    }
  }
}
layers {
  bottom: "fc6"
  top: "fc6"
  name: "relu6"
  type: RELU
}
layers {
  bottom: "fc6"
  top: "fc6"
  name: "drop6"
  type: DROPOUT
  dropout_param {
    dropout_ratio: 0.5
  }
}
layers {
  bottom: "fc6"
  top: "fc7"
  name: "fc7"
  type: INNER_PRODUCT
  blobs_lr: 8
  blobs_lr: 15
  weight_decay: 1
  weight_decay: 0
  inner_product_param {
    num_output: 4096
    weight_filler {
      type: "gaussian"
      std: 0.005
    }
    bias_filler {
      type: "constant"
      value: 1
    }
  }
}
layers {
  bottom: "fc7"
  top: "fc7"
  name: "relu7"
  type: RELU
}
layers {
  bottom: "fc7"
  top: "fc7"
  name: "drop7"
  type: DROPOUT
  dropout_param {
    dropout_ratio: 0.5
  }
}
layers {
  bottom: "fc7"
  top: "fc8_objDetect"
  name: "fc8_objDetect"
  type: INNER_PRODUCT
  blobs_lr: 10
  blobs_lr: 20
  weight_decay: 1
  weight_decay: 0
  inner_product_param {
    num_output: 2
    weight_filler {
      type: "gaussian"
      std: 0.01
    }
    bias_filler {
      type: "constant"
      value: 0
    }
  }
}
layers {
  bottom: "fc8_objDetect"
  bottom: "label"
  top: "loss"
  name: "loss"
  type: SOFTMAX_LOSS
}
state {
  phase: TRAIN
}
I0307 20:50:15.135889  5089 layer_factory.hpp:78] Creating layer data
I0307 20:50:15.135902  5089 data_transformer.cpp:24] Loading mean file from/usr/local/caffe-dev/examples/objDetectCNN/imagenet_mean.binaryproto
I0307 20:50:15.138532  5089 net.cpp:67] Creating Layer data
I0307 20:50:15.138566  5089 net.cpp:356] data -> data
I0307 20:50:15.138586  5089 net.cpp:356] data -> label
I0307 20:50:15.138598  5089 net.cpp:96] Setting up data
I0307 20:50:15.138608  5089 data_layer.cpp:32] Opening dataset /media/lifelogging/HDD_2TB/Objects_Detection/data_split/objDetectCNN_train_lmdb
I0307 20:50:15.139040  5089 data_layer.cpp:71] output data size: 128,3,227,227
I0307 20:50:15.188231  5089 net.cpp:103] Top shape: 128 3 227 227 (19787136)
I0307 20:50:15.188271  5089 net.cpp:103] Top shape: 128 1 1 1 (128)
I0307 20:50:15.188279  5089 layer_factory.hpp:78] Creating layer conv1
I0307 20:50:15.188297  5089 net.cpp:67] Creating Layer conv1
I0307 20:50:15.188302  5089 net.cpp:394] conv1 <- data
I0307 20:50:15.188316  5089 net.cpp:356] conv1 -> conv1
I0307 20:50:15.188338  5089 net.cpp:96] Setting up conv1
I0307 20:50:15.204741  5089 net.cpp:103] Top shape: 128 96 55 55 (37171200)
I0307 20:50:15.204789  5089 layer_factory.hpp:78] Creating layer relu1
I0307 20:50:15.204802  5089 net.cpp:67] Creating Layer relu1
I0307 20:50:15.204807  5089 net.cpp:394] relu1 <- conv1
I0307 20:50:15.204815  5089 net.cpp:345] relu1 -> conv1 (in-place)
I0307 20:50:15.204824  5089 net.cpp:96] Setting up relu1
I0307 20:50:15.204834  5089 net.cpp:103] Top shape: 128 96 55 55 (37171200)
I0307 20:50:15.204839  5089 layer_factory.hpp:78] Creating layer pool1
I0307 20:50:15.204849  5089 net.cpp:67] Creating Layer pool1
I0307 20:50:15.204854  5089 net.cpp:394] pool1 <- conv1
I0307 20:50:15.204861  5089 net.cpp:356] pool1 -> pool1
I0307 20:50:15.204869  5089 net.cpp:96] Setting up pool1
I0307 20:50:15.204886  5089 net.cpp:103] Top shape: 128 96 27 27 (8957952)
I0307 20:50:15.204891  5089 layer_factory.hpp:78] Creating layer norm1
I0307 20:50:15.204903  5089 net.cpp:67] Creating Layer norm1
I0307 20:50:15.204908  5089 net.cpp:394] norm1 <- pool1
I0307 20:50:15.204915  5089 net.cpp:356] norm1 -> norm1
I0307 20:50:15.204936  5089 net.cpp:96] Setting up norm1
I0307 20:50:15.204944  5089 net.cpp:103] Top shape: 128 96 27 27 (8957952)
I0307 20:50:15.204949  5089 layer_factory.hpp:78] Creating layer conv2
I0307 20:50:15.204958  5089 net.cpp:67] Creating Layer conv2
I0307 20:50:15.204972  5089 net.cpp:394] conv2 <- norm1
I0307 20:50:15.204979  5089 net.cpp:356] conv2 -> conv2
I0307 20:50:15.204987  5089 net.cpp:96] Setting up conv2
I0307 20:50:15.212960  5089 net.cpp:103] Top shape: 128 256 27 27 (23887872)
I0307 20:50:15.212999  5089 layer_factory.hpp:78] Creating layer relu2
I0307 20:50:15.213011  5089 net.cpp:67] Creating Layer relu2
I0307 20:50:15.213016  5089 net.cpp:394] relu2 <- conv2
I0307 20:50:15.213024  5089 net.cpp:345] relu2 -> conv2 (in-place)
I0307 20:50:15.213032  5089 net.cpp:96] Setting up relu2
I0307 20:50:15.213039  5089 net.cpp:103] Top shape: 128 256 27 27 (23887872)
I0307 20:50:15.213044  5089 layer_factory.hpp:78] Creating layer pool2
I0307 20:50:15.213052  5089 net.cpp:67] Creating Layer pool2
I0307 20:50:15.213057  5089 net.cpp:394] pool2 <- conv2
I0307 20:50:15.213063  5089 net.cpp:356] pool2 -> pool2
I0307 20:50:15.213069  5089 net.cpp:96] Setting up pool2
I0307 20:50:15.213079  5089 net.cpp:103] Top shape: 128 256 13 13 (5537792)
I0307 20:50:15.213084  5089 layer_factory.hpp:78] Creating layer norm2
I0307 20:50:15.213093  5089 net.cpp:67] Creating Layer norm2
I0307 20:50:15.213104  5089 net.cpp:394] norm2 <- pool2
I0307 20:50:15.213109  5089 net.cpp:356] norm2 -> norm2
I0307 20:50:15.213115  5089 net.cpp:96] Setting up norm2
I0307 20:50:15.213121  5089 net.cpp:103] Top shape: 128 256 13 13 (5537792)
I0307 20:50:15.213125  5089 layer_factory.hpp:78] Creating layer conv3
I0307 20:50:15.213132  5089 net.cpp:67] Creating Layer conv3
I0307 20:50:15.213136  5089 net.cpp:394] conv3 <- norm2
I0307 20:50:15.213145  5089 net.cpp:356] conv3 -> conv3
I0307 20:50:15.213152  5089 net.cpp:96] Setting up conv3
I0307 20:50:15.237843  5089 net.cpp:103] Top shape: 128 384 13 13 (8306688)
I0307 20:50:15.237891  5089 layer_factory.hpp:78] Creating layer relu3
I0307 20:50:15.237906  5089 net.cpp:67] Creating Layer relu3
I0307 20:50:15.237915  5089 net.cpp:394] relu3 <- conv3
I0307 20:50:15.237926  5089 net.cpp:345] relu3 -> conv3 (in-place)
I0307 20:50:15.237938  5089 net.cpp:96] Setting up relu3
I0307 20:50:15.237951  5089 net.cpp:103] Top shape: 128 384 13 13 (8306688)
I0307 20:50:15.237959  5089 layer_factory.hpp:78] Creating layer conv4
I0307 20:50:15.237977  5089 net.cpp:67] Creating Layer conv4
I0307 20:50:15.237984  5089 net.cpp:394] conv4 <- conv3
I0307 20:50:15.237998  5089 net.cpp:356] conv4 -> conv4
I0307 20:50:15.238010  5089 net.cpp:96] Setting up conv4
I0307 20:50:15.256486  5089 net.cpp:103] Top shape: 128 384 13 13 (8306688)
I0307 20:50:15.256525  5089 layer_factory.hpp:78] Creating layer relu4
I0307 20:50:15.256537  5089 net.cpp:67] Creating Layer relu4
I0307 20:50:15.256544  5089 net.cpp:394] relu4 <- conv4
I0307 20:50:15.256553  5089 net.cpp:345] relu4 -> conv4 (in-place)
I0307 20:50:15.256561  5089 net.cpp:96] Setting up relu4
I0307 20:50:15.256569  5089 net.cpp:103] Top shape: 128 384 13 13 (8306688)
I0307 20:50:15.256573  5089 layer_factory.hpp:78] Creating layer conv5
I0307 20:50:15.256582  5089 net.cpp:67] Creating Layer conv5
I0307 20:50:15.256585  5089 net.cpp:394] conv5 <- conv4
I0307 20:50:15.256593  5089 net.cpp:356] conv5 -> conv5
I0307 20:50:15.256603  5089 net.cpp:96] Setting up conv5
I0307 20:50:15.269608  5089 net.cpp:103] Top shape: 128 256 13 13 (5537792)
I0307 20:50:15.269645  5089 layer_factory.hpp:78] Creating layer relu5
I0307 20:50:15.269656  5089 net.cpp:67] Creating Layer relu5
I0307 20:50:15.269662  5089 net.cpp:394] relu5 <- conv5
I0307 20:50:15.269670  5089 net.cpp:345] relu5 -> conv5 (in-place)
I0307 20:50:15.269678  5089 net.cpp:96] Setting up relu5
I0307 20:50:15.269685  5089 net.cpp:103] Top shape: 128 256 13 13 (5537792)
I0307 20:50:15.269690  5089 layer_factory.hpp:78] Creating layer pool5
I0307 20:50:15.269697  5089 net.cpp:67] Creating Layer pool5
I0307 20:50:15.269709  5089 net.cpp:394] pool5 <- conv5
I0307 20:50:15.269717  5089 net.cpp:356] pool5 -> pool5
I0307 20:50:15.269724  5089 net.cpp:96] Setting up pool5
I0307 20:50:15.269734  5089 net.cpp:103] Top shape: 128 256 6 6 (1179648)
I0307 20:50:15.269738  5089 layer_factory.hpp:78] Creating layer fc6
I0307 20:50:15.269760  5089 net.cpp:67] Creating Layer fc6
I0307 20:50:15.269767  5089 net.cpp:394] fc6 <- pool5
I0307 20:50:15.269773  5089 net.cpp:356] fc6 -> fc6
I0307 20:50:15.269780  5089 net.cpp:96] Setting up fc6
I0307 20:50:16.256700  5089 net.cpp:103] Top shape: 128 4096 1 1 (524288)
I0307 20:50:16.256731  5089 layer_factory.hpp:78] Creating layer relu6
I0307 20:50:16.256742  5089 net.cpp:67] Creating Layer relu6
I0307 20:50:16.256748  5089 net.cpp:394] relu6 <- fc6
I0307 20:50:16.256757  5089 net.cpp:345] relu6 -> fc6 (in-place)
I0307 20:50:16.256767  5089 net.cpp:96] Setting up relu6
I0307 20:50:16.256783  5089 net.cpp:103] Top shape: 128 4096 1 1 (524288)
I0307 20:50:16.256788  5089 layer_factory.hpp:78] Creating layer drop6
I0307 20:50:16.256796  5089 net.cpp:67] Creating Layer drop6
I0307 20:50:16.256801  5089 net.cpp:394] drop6 <- fc6
I0307 20:50:16.256808  5089 net.cpp:345] drop6 -> fc6 (in-place)
I0307 20:50:16.256814  5089 net.cpp:96] Setting up drop6
I0307 20:50:16.256822  5089 net.cpp:103] Top shape: 128 4096 1 1 (524288)
I0307 20:50:16.256826  5089 layer_factory.hpp:78] Creating layer fc7
I0307 20:50:16.256834  5089 net.cpp:67] Creating Layer fc7
I0307 20:50:16.256839  5089 net.cpp:394] fc7 <- fc6
I0307 20:50:16.256844  5089 net.cpp:356] fc7 -> fc7
I0307 20:50:16.256852  5089 net.cpp:96] Setting up fc7
I0307 20:50:16.681655  5089 net.cpp:103] Top shape: 128 4096 1 1 (524288)
I0307 20:50:16.681684  5089 layer_factory.hpp:78] Creating layer relu7
I0307 20:50:16.681694  5089 net.cpp:67] Creating Layer relu7
I0307 20:50:16.681699  5089 net.cpp:394] relu7 <- fc7
I0307 20:50:16.681710  5089 net.cpp:345] relu7 -> fc7 (in-place)
I0307 20:50:16.681718  5089 net.cpp:96] Setting up relu7
I0307 20:50:16.681735  5089 net.cpp:103] Top shape: 128 4096 1 1 (524288)
I0307 20:50:16.681740  5089 layer_factory.hpp:78] Creating layer drop7
I0307 20:50:16.681746  5089 net.cpp:67] Creating Layer drop7
I0307 20:50:16.681751  5089 net.cpp:394] drop7 <- fc7
I0307 20:50:16.681756  5089 net.cpp:345] drop7 -> fc7 (in-place)
I0307 20:50:16.681762  5089 net.cpp:96] Setting up drop7
I0307 20:50:16.681767  5089 net.cpp:103] Top shape: 128 4096 1 1 (524288)
I0307 20:50:16.681772  5089 layer_factory.hpp:78] Creating layer fc8_objDetect
I0307 20:50:16.681781  5089 net.cpp:67] Creating Layer fc8_objDetect
I0307 20:50:16.681785  5089 net.cpp:394] fc8_objDetect <- fc7
I0307 20:50:16.681792  5089 net.cpp:356] fc8_objDetect -> fc8_objDetect
I0307 20:50:16.681799  5089 net.cpp:96] Setting up fc8_objDetect
I0307 20:50:16.682018  5089 net.cpp:103] Top shape: 128 2 1 1 (256)
I0307 20:50:16.682025  5089 layer_factory.hpp:78] Creating layer loss
I0307 20:50:16.682035  5089 net.cpp:67] Creating Layer loss
I0307 20:50:16.682039  5089 net.cpp:394] loss <- fc8_objDetect
I0307 20:50:16.682046  5089 net.cpp:394] loss <- label
I0307 20:50:16.682054  5089 net.cpp:356] loss -> loss
I0307 20:50:16.682061  5089 net.cpp:96] Setting up loss
I0307 20:50:16.682072  5089 net.cpp:103] Top shape: 1 1 1 1 (1)
I0307 20:50:16.682077  5089 net.cpp:109]     with loss weight 1
I0307 20:50:16.682102  5089 net.cpp:170] loss needs backward computation.
I0307 20:50:16.682107  5089 net.cpp:170] fc8_objDetect needs backward computation.
I0307 20:50:16.682111  5089 net.cpp:170] drop7 needs backward computation.
I0307 20:50:16.682116  5089 net.cpp:170] relu7 needs backward computation.
I0307 20:50:16.682119  5089 net.cpp:170] fc7 needs backward computation.
…
I0307 20:50:16.682852  5089 net.cpp:275] The NetState phase (1) differed from the phase (0) specified by a rule in layer data
I0307 20:50:16.683012  5089 net.cpp:39] Initializing net from parameters: 
name: "CaffeNet"
layers {
  top: "data"
  top: "label"
  name: "data"
  type: DATA
  data_param {
    source: "/media/lifelogging/HDD_2TB/Objects_Detection/data_split/objDetectCNN_val_lmdb"
    batch_size: 50
    backend: LMDB
  }
  include {
    phase: TEST
  }
  transform_param {
    mirror: false
    crop_size: 227
    mean_file: "/usr/local/caffe-dev/examples/objDetectCNN/imagenet_mean.binaryproto"
  }
}
layers {
  bottom: "data"
  top: "conv1"
  name: "conv1"
  type: CONVOLUTION
  blobs_lr: 1
  blobs_lr: 2
  weight_decay: 1
  weight_decay: 0
  convolution_param {
    num_output: 96
    kernel_size: 11
    stride: 4
    weight_filler {
      type: "gaussian"
      std: 0.01
    }
    bias_filler {
      type: "constant"
      value: 0
    }
  }
}
layers {
  bottom: "conv1"
  top: "conv1"
  name: "relu1"
  type: RELU
}
layers {
  bottom: "conv1"
  top: "pool1"
  name: "pool1"
  type: POOLING
  pooling_param {
    pool: MAX
    kernel_size: 3
    stride: 2
  }
}
layers {
  bottom: "pool1"
  top: "norm1"
  name: "norm1"
  type: LRN
  lrn_param {
    local_size: 5
    alpha: 0.0001
    beta: 0.75
  }
}
layers {
  bottom: "norm1"
  top: "conv2"
  name: "conv2"
  type: CONVOLUTION
  blobs_lr: 1
  blobs_lr: 2
  weight_decay: 1
  weight_decay: 0
  convolution_param {
    num_output: 256
    pad: 2
    kernel_size: 5
    group: 2
    weight_filler {
      type: "gaussian"
      std: 0.01
    }
    bias_filler {
      type: "constant"
      value: 1
    }
  }
}
layers {
  bottom: "conv2"
  top: "conv2"
  name: "relu2"
  type: RELU
}
layers {
  bottom: "conv2"
  top: "pool2"
  name: "pool2"
  type: POOLING
  pooling_param {
    pool: MAX
    kernel_size: 3
    stride: 2
  }
}
layers {
  bottom: "pool2"
  top: "norm2"
  name: "norm2"
  type: LRN
  lrn_param {
    local_size: 5
    alpha: 0.0001
    beta: 0.75
  }
}
layers {
  bottom: "norm2"
  top: "conv3"
  name: "conv3"
  type: CONVOLUTION
  blobs_lr: 1
  blobs_lr: 2
  weight_decay: 1
  weight_decay: 0
  convolution_param {
    num_output: 384
    pad: 1
    kernel_size: 3
    weight_filler {
      type: "gaussian"
      std: 0.01
    }
    bias_filler {
      type: "constant"
      value: 0
    }
  }
}
layers {
  bottom: "conv3"
  top: "conv3"
  name: "relu3"
  type: RELU
}
layers {
  bottom: "conv3"
  top: "conv4"
  name: "conv4"
  type: CONVOLUTION
  blobs_lr: 1
  blobs_lr: 2
  weight_decay: 1
  weight_decay: 0
  convolution_param {
    num_output: 384
    pad: 1
    kernel_size: 3
    group: 2
    weight_filler {
      type: "gaussian"
      std: 0.01
    }
    bias_filler {
      type: "constant"
      value: 1
    }
  }
}
layers {
  bottom: "conv4"
  top: "conv4"
  name: "relu4"
  type: RELU
}
layers {
  bottom: "conv4"
  top: "conv5"
  name: "conv5"
  type: CONVOLUTION
  blobs_lr: 1
  blobs_lr: 2
  weight_decay: 1
  weight_decay: 0
  convolution_param {
    num_output: 256
    pad: 1
    kernel_size: 3
    group: 2
    weight_filler {
      type: "gaussian"
      std: 0.01
    }
    bias_filler {
      type: "constant"
      value: 1
    }
  }
}
layers {
  bottom: "conv5"
  top: "conv5"
  name: "relu5"
  type: RELU
}
layers {
  bottom: "conv5"
  top: "pool5"
  name: "pool5"
  type: POOLING
  pooling_param {
    pool: MAX
    kernel_size: 3
    stride: 2
  }
}
layers {
  bottom: "pool5"
  top: "fc6"
  name: "fc6"
  type: INNER_PRODUCT
  blobs_lr: 5
  blobs_lr: 10
  weight_decay: 1
  weight_decay: 0
  inner_product_param {
    num_output: 4096
    weight_filler {
      type: "gaussian"
      std: 0.005
    }
    bias_filler {
      type: "constant"
      value: 1
    }
  }
}
layers {
  bottom: "fc6"
  top: "fc6"
  name: "relu6"
  type: RELU
}
layers {
  bottom: "fc6"
  top: "fc6"
  name: "drop6"
  type: DROPOUT
  dropout_param {
    dropout_ratio: 0.5
  }
}
layers {
  bottom: "fc6"
  top: "fc7"
  name: "fc7"
  type: INNER_PRODUCT
  blobs_lr: 8
  blobs_lr: 15
  weight_decay: 1
  weight_decay: 0
  inner_product_param {
    num_output: 4096
    weight_filler {
      type: "gaussian"
      std: 0.005
    }
    bias_filler {
      type: "constant"
      value: 1
    }
  }
}
layers {
  bottom: "fc7"
  top: "fc7"
  name: "relu7"
  type: RELU
}
layers {
  bottom: "fc7"
  top: "fc7"
  name: "drop7"
  type: DROPOUT
  dropout_param {
    dropout_ratio: 0.5
  }
}
layers {
  bottom: "fc7"
  top: "fc8_objDetect"
  name: "fc8_objDetect"
  type: INNER_PRODUCT
  blobs_lr: 10
  blobs_lr: 20
  weight_decay: 1
  weight_decay: 0
  inner_product_param {
    num_output: 2
    weight_filler {
      type: "gaussian"
      std: 0.01
    }
    bias_filler {
      type: "constant"
      value: 0
    }
  }
}
layers {
  bottom: "fc8_objDetect"
  bottom: "label"
  top: "accuracy"
  name: "accuracy"
  type: ACCURACY
  include {
    phase: TEST
  }
}
layers {
  bottom: "fc8_objDetect"
  bottom: "label"
  top: "loss"
  name: "loss"
  type: SOFTMAX_LOSS
}
state {
  phase: TEST
}
I0307 20:50:16.683118  5089 layer_factory.hpp:78] Creating layer data
I0307 20:50:16.683128  5089 data_transformer.cpp:24] Loading mean file from/usr/local/caffe-dev/examples/objDetectCNN/imagenet_mean.binaryproto
I0307 20:50:16.684515  5089 net.cpp:67] Creating Layer data
I0307 20:50:16.684528  5089 net.cpp:356] data -> data
I0307 20:50:16.684538  5089 net.cpp:356] data -> label
I0307 20:50:16.684545  5089 net.cpp:96] Setting up data
I0307 20:50:16.684551  5089 data_layer.cpp:32] Opening dataset /media/lifelogging/HDD_2TB/Objects_Detection/data_split/objDetectCNN_val_lmdb
I0307 20:50:16.684896  5089 data_layer.cpp:71] output data size: 50,3,227,227
I0307 20:50:16.694849  5089 net.cpp:103] Top shape: 50 3 227 227 (7729350)
I0307 20:50:16.694885  5089 net.cpp:103] Top shape: 50 1 1 1 (50)
I0307 20:50:16.694893  5089 layer_factory.hpp:78] Creating layer label_data_1_split
I0307 20:50:16.694911  5089 net.cpp:67] Creating Layer label_data_1_split
I0307 20:50:16.694916  5089 net.cpp:394] label_data_1_split <- label
I0307 20:50:16.694926  5089 net.cpp:356] label_data_1_split -> label_data_1_split_0
I0307 20:50:16.694936  5089 net.cpp:356] label_data_1_split -> label_data_1_split_1
I0307 20:50:16.694943  5089 net.cpp:96] Setting up label_data_1_split
I0307 20:50:16.694952  5089 net.cpp:103] Top shape: 50 1 1 1 (50)
I0307 20:50:16.694955  5089 net.cpp:103] Top shape: 50 1 1 1 (50)
I0307 20:50:16.694960  5089 layer_factory.hpp:78] Creating layer conv1
I0307 20:50:16.694968  5089 net.cpp:67] Creating Layer conv1
I0307 20:50:16.694983  5089 net.cpp:394] conv1 <- data
I0307 20:50:16.694990  5089 net.cpp:356] conv1 -> conv1
I0307 20:50:16.694998  5089 net.cpp:96] Setting up conv1
I0307 20:50:16.695953  5089 net.cpp:103] Top shape: 50 96 55 55 (14520000)
I0307 20:50:16.695968  5089 layer_factory.hpp:78] Creating layer relu1
I0307 20:50:16.695986  5089 net.cpp:67] Creating Layer relu1
I0307 20:50:16.695991  5089 net.cpp:394] relu1 <- conv1
I0307 20:50:16.695996  5089 net.cpp:345] relu1 -> conv1 (in-place)
I0307 20:50:16.696002  5089 net.cpp:96] Setting up relu1
I0307 20:50:16.696009  5089 net.cpp:103] Top shape: 50 96 55 55 (14520000)
I0307 20:50:16.696014  5089 layer_factory.hpp:78] Creating layer pool1
I0307 20:50:16.696022  5089 net.cpp:67] Creating Layer pool1
I0307 20:50:16.696027  5089 net.cpp:394] pool1 <- conv1
I0307 20:50:16.696033  5089 net.cpp:356] pool1 -> pool1
I0307 20:50:16.696038  5089 net.cpp:96] Setting up pool1
I0307 20:50:16.696048  5089 net.cpp:103] Top shape: 50 96 27 27 (3499200)
I0307 20:50:16.696053  5089 layer_factory.hpp:78] Creating layer norm1
I0307 20:50:16.696059  5089 net.cpp:67] Creating Layer norm1
I0307 20:50:16.696064  5089 net.cpp:394] norm1 <- pool1
I0307 20:50:16.696070  5089 net.cpp:356] norm1 -> norm1
I0307 20:50:16.696076  5089 net.cpp:96] Setting up norm1
I0307 20:50:16.696082  5089 net.cpp:103] Top shape: 50 96 27 27 (3499200)
I0307 20:50:16.696086  5089 layer_factory.hpp:78] Creating layer conv2
I0307 20:50:16.696092  5089 net.cpp:67] Creating Layer conv2
I0307 20:50:16.696096  5089 net.cpp:394] conv2 <- norm1
I0307 20:50:16.696104  5089 net.cpp:356] conv2 -> conv2
I0307 20:50:16.696110  5089 net.cpp:96] Setting up conv2
I0307 20:50:16.704105  5089 net.cpp:103] Top shape: 50 256 27 27 (9331200)
I0307 20:50:16.704148  5089 layer_factory.hpp:78] Creating layer relu2
I0307 20:50:16.704159  5089 net.cpp:67] Creating Layer relu2
I0307 20:50:16.704164  5089 net.cpp:394] relu2 <- conv2
I0307 20:50:16.704171  5089 net.cpp:345] relu2 -> conv2 (in-place)
I0307 20:50:16.704180  5089 net.cpp:96] Setting up relu2
I0307 20:50:16.704187  5089 net.cpp:103] Top shape: 50 256 27 27 (9331200)
I0307 20:50:16.704191  5089 layer_factory.hpp:78] Creating layer pool2
I0307 20:50:16.704201  5089 net.cpp:67] Creating Layer pool2
I0307 20:50:16.704205  5089 net.cpp:394] pool2 <- conv2
I0307 20:50:16.704213  5089 net.cpp:356] pool2 -> pool2
I0307 20:50:16.704222  5089 net.cpp:96] Setting up pool2
I0307 20:50:16.704232  5089 net.cpp:103] Top shape: 50 256 13 13 (2163200)
I0307 20:50:16.704237  5089 layer_factory.hpp:78] Creating layer norm2
I0307 20:50:16.704246  5089 net.cpp:67] Creating Layer norm2
I0307 20:50:16.704252  5089 net.cpp:394] norm2 <- pool2
I0307 20:50:16.704257  5089 net.cpp:356] norm2 -> norm2
I0307 20:50:16.704264  5089 net.cpp:96] Setting up norm2
I0307 20:50:16.704269  5089 net.cpp:103] Top shape: 50 256 13 13 (2163200)
I0307 20:50:16.704274  5089 layer_factory.hpp:78] Creating layer conv3
I0307 20:50:16.704282  5089 net.cpp:67] Creating Layer conv3
I0307 20:50:16.704288  5089 net.cpp:394] conv3 <- norm2
I0307 20:50:16.704294  5089 net.cpp:356] conv3 -> conv3
I0307 20:50:16.704301  5089 net.cpp:96] Setting up conv3
I0307 20:50:16.726908  5089 net.cpp:103] Top shape: 50 384 13 13 (3244800)
I0307 20:50:16.726944  5089 layer_factory.hpp:78] Creating layer relu3
I0307 20:50:16.726953  5089 net.cpp:67] Creating Layer relu3
I0307 20:50:16.726959  5089 net.cpp:394] relu3 <- conv3
I0307 20:50:16.726969  5089 net.cpp:345] relu3 -> conv3 (in-place)
I0307 20:50:16.726977  5089 net.cpp:96] Setting up relu3
I0307 20:50:16.726984  5089 net.cpp:103] Top shape: 50 384 13 13 (3244800)
I0307 20:50:16.726989  5089 layer_factory.hpp:78] Creating layer conv4
I0307 20:50:16.726997  5089 net.cpp:67] Creating Layer conv4
I0307 20:50:16.727002  5089 net.cpp:394] conv4 <- conv3
I0307 20:50:16.727010  5089 net.cpp:356] conv4 -> conv4
I0307 20:50:16.727018  5089 net.cpp:96] Setting up conv4
I0307 20:50:16.743978  5089 net.cpp:103] Top shape: 50 384 13 13 (3244800)
I0307 20:50:16.744010  5089 layer_factory.hpp:78] Creating layer relu4
I0307 20:50:16.744029  5089 net.cpp:67] Creating Layer relu4
I0307 20:50:16.744035  5089 net.cpp:394] relu4 <- conv4
I0307 20:50:16.744045  5089 net.cpp:345] relu4 -> conv4 (in-place)
I0307 20:50:16.744053  5089 net.cpp:96] Setting up relu4
I0307 20:50:16.744060  5089 net.cpp:103] Top shape: 50 384 13 13 (3244800)
I0307 20:50:16.744073  5089 layer_factory.hpp:78] Creating layer conv5
I0307 20:50:16.744081  5089 net.cpp:67] Creating Layer conv5
I0307 20:50:16.744086  5089 net.cpp:394] conv5 <- conv4
I0307 20:50:16.744092  5089 net.cpp:356] conv5 -> conv5
I0307 20:50:16.744101  5089 net.cpp:96] Setting up conv5
I0307 20:50:16.755640  5089 net.cpp:103] Top shape: 50 256 13 13 (2163200)
I0307 20:50:16.755676  5089 layer_factory.hpp:78] Creating layer relu5
I0307 20:50:16.755687  5089 net.cpp:67] Creating Layer relu5
I0307 20:50:16.755692  5089 net.cpp:394] relu5 <- conv5
I0307 20:50:16.755700  5089 net.cpp:345] relu5 -> conv5 (in-place)
I0307 20:50:16.755708  5089 net.cpp:96] Setting up relu5
I0307 20:50:16.755717  5089 net.cpp:103] Top shape: 50 256 13 13 (2163200)
I0307 20:50:16.755720  5089 layer_factory.hpp:78] Creating layer pool5
I0307 20:50:16.755731  5089 net.cpp:67] Creating Layer pool5
I0307 20:50:16.755736  5089 net.cpp:394] pool5 <- conv5
I0307 20:50:16.755743  5089 net.cpp:356] pool5 -> pool5
I0307 20:50:16.755750  5089 net.cpp:96] Setting up pool5
I0307 20:50:16.755759  5089 net.cpp:103] Top shape: 50 256 6 6 (460800)
I0307 20:50:16.755764  5089 layer_factory.hpp:78] Creating layer fc6
I0307 20:50:16.755772  5089 net.cpp:67] Creating Layer fc6
I0307 20:50:16.755777  5089 net.cpp:394] fc6 <- pool5
I0307 20:50:16.755784  5089 net.cpp:356] fc6 -> fc6
I0307 20:50:16.755791  5089 net.cpp:96] Setting up fc6
I0307 20:50:17.735860  5089 net.cpp:103] Top shape: 50 4096 1 1 (204800)
I0307 20:50:17.735898  5089 layer_factory.hpp:78] Creating layer relu6
I0307 20:50:17.735909  5089 net.cpp:67] Creating Layer relu6
I0307 20:50:17.735915  5089 net.cpp:394] relu6 <- fc6
I0307 20:50:17.735924  5089 net.cpp:345] relu6 -> fc6 (in-place)
I0307 20:50:17.735931  5089 net.cpp:96] Setting up relu6
I0307 20:50:17.735947  5089 net.cpp:103] Top shape: 50 4096 1 1 (204800)
I0307 20:50:17.735952  5089 layer_factory.hpp:78] Creating layer drop6
I0307 20:50:17.735962  5089 net.cpp:67] Creating Layer drop6
I0307 20:50:17.735967  5089 net.cpp:394] drop6 <- fc6
I0307 20:50:17.735973  5089 net.cpp:345] drop6 -> fc6 (in-place)
I0307 20:50:17.735980  5089 net.cpp:96] Setting up drop6
I0307 20:50:17.735985  5089 net.cpp:103] Top shape: 50 4096 1 1 (204800)
I0307 20:50:17.735990  5089 layer_factory.hpp:78] Creating layer fc7
I0307 20:50:17.735996  5089 net.cpp:67] Creating Layer fc7
I0307 20:50:17.736001  5089 net.cpp:394] fc7 <- fc6
I0307 20:50:17.736008  5089 net.cpp:356] fc7 -> fc7
I0307 20:50:17.736016  5089 net.cpp:96] Setting up fc7
I0307 20:50:18.161255  5089 net.cpp:103] Top shape: 50 4096 1 1 (204800)
I0307 20:50:18.161294  5089 layer_factory.hpp:78] Creating layer relu7
I0307 20:50:18.161304  5089 net.cpp:67] Creating Layer relu7
I0307 20:50:18.161310  5089 net.cpp:394] relu7 <- fc7
I0307 20:50:18.161319  5089 net.cpp:345] relu7 -> fc7 (in-place)
I0307 20:50:18.161329  5089 net.cpp:96] Setting up relu7
I0307 20:50:18.161345  5089 net.cpp:103] Top shape: 50 4096 1 1 (204800)
I0307 20:50:18.161350  5089 layer_factory.hpp:78] Creating layer drop7
I0307 20:50:18.161355  5089 net.cpp:67] Creating Layer drop7
I0307 20:50:18.161360  5089 net.cpp:394] drop7 <- fc7
I0307 20:50:18.161366  5089 net.cpp:345] drop7 -> fc7 (in-place)
I0307 20:50:18.161372  5089 net.cpp:96] Setting up drop7
I0307 20:50:18.161377  5089 net.cpp:103] Top shape: 50 4096 1 1 (204800)
I0307 20:50:18.161381  5089 layer_factory.hpp:78] Creating layer fc8_objDetect
I0307 20:50:18.161393  5089 net.cpp:67] Creating Layer fc8_objDetect
I0307 20:50:18.161398  5089 net.cpp:394] fc8_objDetect <- fc7
I0307 20:50:18.161404  5089 net.cpp:356] fc8_objDetect -> fc8_objDetect
I0307 20:50:18.161414  5089 net.cpp:96] Setting up fc8_objDetect
I0307 20:50:18.161633  5089 net.cpp:103] Top shape: 50 2 1 1 (100)
I0307 20:50:18.161650  5089 layer_factory.hpp:78] Creating layer fc8_objDetect_fc8_objDetect_0_split
I0307 20:50:18.161656  5089 net.cpp:67] Creating Layer fc8_objDetect_fc8_objDetect_0_split
I0307 20:50:18.161661  5089 net.cpp:394] fc8_objDetect_fc8_objDetect_0_split <- fc8_objDetect
I0307 20:50:18.161675  5089 net.cpp:356] fc8_objDetect_fc8_objDetect_0_split -> fc8_objDetect_fc8_objDetect_0_split_0
I0307 20:50:18.161684  5089 net.cpp:356] fc8_objDetect_fc8_objDetect_0_split -> fc8_objDetect_fc8_objDetect_0_split_1
I0307 20:50:18.161689  5089 net.cpp:96] Setting up fc8_objDetect_fc8_objDetect_0_split
I0307 20:50:18.161695  5089 net.cpp:103] Top shape: 50 2 1 1 (100)
I0307 20:50:18.161700  5089 net.cpp:103] Top shape: 50 2 1 1 (100)
I0307 20:50:18.161703  5089 layer_factory.hpp:78] Creating layer accuracy
I0307 20:50:18.161715  5089 net.cpp:67] Creating Layer accuracy
I0307 20:50:18.161720  5089 net.cpp:394] accuracy <- fc8_objDetect_fc8_objDetect_0_split_0
I0307 20:50:18.161725  5089 net.cpp:394] accuracy <- label_data_1_split_0
I0307 20:50:18.161731  5089 net.cpp:356] accuracy -> accuracy
I0307 20:50:18.161737  5089 net.cpp:96] Setting up accuracy
I0307 20:50:18.161742  5089 net.cpp:103] Top shape: 1 1 1 1 (1)
I0307 20:50:18.161746  5089 layer_factory.hpp:78] Creating layer loss
I0307 20:50:18.161754  5089 net.cpp:67] Creating Layer loss
I0307 20:50:18.161759  5089 net.cpp:394] loss <- fc8_objDetect_fc8_objDetect_0_split_1
I0307 20:50:18.161764  5089 net.cpp:394] loss <- label_data_1_split_1
I0307 20:50:18.161769  5089 net.cpp:356] loss -> loss
I0307 20:50:18.161777  5089 net.cpp:96] Setting up loss
I0307 20:50:18.161783  5089 net.cpp:103] Top shape: 1 1 1 1 (1)
I0307 20:50:18.161787  5089 net.cpp:109]     with loss weight 1
I0307 20:50:18.161799  5089 net.cpp:170] loss needs backward computation.
I0307 20:50:18.161805  5089 net.cpp:172] accuracy does not need backward computation.
I0307 20:50:18.161810  5089 net.cpp:170] fc8_objDetect_fc8_objDetect_0_split needs backward computation.
I0307 20:50:18.161814  5089 net.cpp:170] fc8_objDetect needs backward computation.
…
